node {
  name: "Full_Graph/global_step/Initializer/Const"
  op: "Const"
  attr {
    key: "_class"
    value {
      list {
        s: "loc:@Full_Graph/global_step"
      }
    }
  }
  attr {
    key: "_output_shapes"
    value {
      list {
        shape {
        }
      }
    }
  }
  attr {
    key: "dtype"
    value {
      type: DT_FLOAT
    }
  }
  attr {
    key: "value"
    value {
      tensor {
        dtype: DT_FLOAT
        tensor_shape {
        }
        float_val: 0.0
      }
    }
  }
}
node {
  name: "Full_Graph/global_step"
  op: "VariableV2"
  attr {
    key: "_class"
    value {
      list {
        s: "loc:@Full_Graph/global_step"
      }
    }
  }
  attr {
    key: "_output_shapes"
    value {
      list {
        shape {
        }
      }
    }
  }
  attr {
    key: "container"
    value {
      s: ""
    }
  }
  attr {
    key: "dtype"
    value {
      type: DT_FLOAT
    }
  }
  attr {
    key: "shape"
    value {
      shape {
      }
    }
  }
  attr {
    key: "shared_name"
    value {
      s: ""
    }
  }
}
node {
  name: "Full_Graph/global_step/Assign"
  op: "Assign"
  input: "Full_Graph/global_step"
  input: "Full_Graph/global_step/Initializer/Const"
  attr {
    key: "T"
    value {
      type: DT_FLOAT
    }
  }
  attr {
    key: "_class"
    value {
      list {
        s: "loc:@Full_Graph/global_step"
      }
    }
  }
  attr {
    key: "_output_shapes"
    value {
      list {
        shape {
        }
      }
    }
  }
  attr {
    key: "use_locking"
    value {
      b: true
    }
  }
  attr {
    key: "validate_shape"
    value {
      b: true
    }
  }
}
node {
  name: "Full_Graph/global_step/read"
  op: "Identity"
  input: "Full_Graph/global_step"
  attr {
    key: "T"
    value {
      type: DT_FLOAT
    }
  }
  attr {
    key: "_class"
    value {
      list {
        s: "loc:@Full_Graph/global_step"
      }
    }
  }
  attr {
    key: "_output_shapes"
    value {
      list {
        shape {
        }
      }
    }
  }
}
node {
  name: "Full_Graph/learn_rate/Learn_decay/learning_rate"
  op: "Const"
  attr {
    key: "_output_shapes"
    value {
      list {
        shape {
        }
      }
    }
  }
  attr {
    key: "dtype"
    value {
      type: DT_FLOAT
    }
  }
  attr {
    key: "value"
    value {
      tensor {
        dtype: DT_FLOAT
        tensor_shape {
        }
        float_val: 0.10000000149011612
      }
    }
  }
}
node {
  name: "Full_Graph/learn_rate/Learn_decay/Cast_1/x"
  op: "Const"
  attr {
    key: "_output_shapes"
    value {
      list {
        shape {
        }
      }
    }
  }
  attr {
    key: "dtype"
    value {
      type: DT_FLOAT
    }
  }
  attr {
    key: "value"
    value {
      tensor {
        dtype: DT_FLOAT
        tensor_shape {
        }
        float_val: 100000.0
      }
    }
  }
}
node {
  name: "Full_Graph/learn_rate/Learn_decay/Cast_2/x"
  op: "Const"
  attr {
    key: "_output_shapes"
    value {
      list {
        shape {
        }
      }
    }
  }
  attr {
    key: "dtype"
    value {
      type: DT_FLOAT
    }
  }
  attr {
    key: "value"
    value {
      tensor {
        dtype: DT_FLOAT
        tensor_shape {
        }
        float_val: 0.9599999785423279
      }
    }
  }
}
node {
  name: "Full_Graph/learn_rate/Learn_decay/truediv"
  op: "RealDiv"
  input: "Full_Graph/global_step/read"
  input: "Full_Graph/learn_rate/Learn_decay/Cast_1/x"
  attr {
    key: "T"
    value {
      type: DT_FLOAT
    }
  }
  attr {
    key: "_output_shapes"
    value {
      list {
        shape {
        }
      }
    }
  }
}
node {
  name: "Full_Graph/learn_rate/Learn_decay/Floor"
  op: "Floor"
  input: "Full_Graph/learn_rate/Learn_decay/truediv"
  attr {
    key: "T"
    value {
      type: DT_FLOAT
    }
  }
  attr {
    key: "_output_shapes"
    value {
      list {
        shape {
        }
      }
    }
  }
}
node {
  name: "Full_Graph/learn_rate/Learn_decay/Pow"
  op: "Pow"
  input: "Full_Graph/learn_rate/Learn_decay/Cast_2/x"
  input: "Full_Graph/learn_rate/Learn_decay/Floor"
  attr {
    key: "T"
    value {
      type: DT_FLOAT
    }
  }
  attr {
    key: "_output_shapes"
    value {
      list {
        shape {
        }
      }
    }
  }
}
node {
  name: "Full_Graph/learn_rate/Learn_decay"
  op: "Mul"
  input: "Full_Graph/learn_rate/Learn_decay/learning_rate"
  input: "Full_Graph/learn_rate/Learn_decay/Pow"
  attr {
    key: "T"
    value {
      type: DT_FLOAT
    }
  }
  attr {
    key: "_output_shapes"
    value {
      list {
        shape {
        }
      }
    }
  }
}
node {
  name: "Full_Graph/learn_rate_1/tags"
  op: "Const"
  attr {
    key: "_output_shapes"
    value {
      list {
        shape {
        }
      }
    }
  }
  attr {
    key: "dtype"
    value {
      type: DT_STRING
    }
  }
  attr {
    key: "value"
    value {
      tensor {
        dtype: DT_STRING
        tensor_shape {
        }
        string_val: "Full_Graph/learn_rate_1"
      }
    }
  }
}
node {
  name: "Full_Graph/learn_rate_1"
  op: "ScalarSummary"
  input: "Full_Graph/learn_rate_1/tags"
  input: "Full_Graph/learn_rate/Learn_decay"
  attr {
    key: "T"
    value {
      type: DT_FLOAT
    }
  }
  attr {
    key: "_output_shapes"
    value {
      list {
        shape {
        }
      }
    }
  }
}
node {
  name: "Full_Graph/input/Input_Tensor"
  op: "Placeholder"
  attr {
    key: "_output_shapes"
    value {
      list {
        shape {
          dim {
            size: -1
          }
          dim {
            size: 66
          }
          dim {
            size: 200
          }
          dim {
            size: 3
          }
        }
      }
    }
  }
  attr {
    key: "dtype"
    value {
      type: DT_FLOAT
    }
  }
  attr {
    key: "shape"
    value {
      shape {
      }
    }
  }
}
node {
  name: "Full_Graph/input/Input_Label"
  op: "Placeholder"
  attr {
    key: "_output_shapes"
    value {
      list {
        shape {
          dim {
            size: -1
          }
          dim {
            size: 5
          }
        }
      }
    }
  }
  attr {
    key: "dtype"
    value {
      type: DT_FLOAT
    }
  }
  attr {
    key: "shape"
    value {
      shape {
      }
    }
  }
}
node {
  name: "Full_Graph/input/ArgMax/dimension"
  op: "Const"
  attr {
    key: "_output_shapes"
    value {
      list {
        shape {
        }
      }
    }
  }
  attr {
    key: "dtype"
    value {
      type: DT_INT32
    }
  }
  attr {
    key: "value"
    value {
      tensor {
        dtype: DT_INT32
        tensor_shape {
        }
        int_val: 1
      }
    }
  }
}
node {
  name: "Full_Graph/input/ArgMax"
  op: "ArgMax"
  input: "Full_Graph/input/Input_Label"
  input: "Full_Graph/input/ArgMax/dimension"
  attr {
    key: "T"
    value {
      type: DT_FLOAT
    }
  }
  attr {
    key: "Tidx"
    value {
      type: DT_INT32
    }
  }
  attr {
    key: "_output_shapes"
    value {
      list {
        shape {
          dim {
            size: -1
          }
        }
      }
    }
  }
}
node {
  name: "Full_Graph/keep_prob/Placeholder"
  op: "Placeholder"
  attr {
    key: "_output_shapes"
    value {
      list {
        shape {
          unknown_rank: true
        }
      }
    }
  }
  attr {
    key: "dtype"
    value {
      type: DT_FLOAT
    }
  }
  attr {
    key: "shape"
    value {
      shape {
      }
    }
  }
}
node {
  name: "Full_Graph/adv_steps/truncated_normal/shape"
  op: "Const"
  attr {
    key: "_output_shapes"
    value {
      list {
        shape {
          dim {
            size: 4
          }
        }
      }
    }
  }
  attr {
    key: "dtype"
    value {
      type: DT_INT32
    }
  }
  attr {
    key: "value"
    value {
      tensor {
        dtype: DT_INT32
        tensor_shape {
          dim {
            size: 4
          }
        }
        tensor_content: "\005\000\000\000\005\000\000\000\003\000\000\000\020\000\000\000"
      }
    }
  }
}
node {
  name: "Full_Graph/adv_steps/truncated_normal/mean"
  op: "Const"
  attr {
    key: "_output_shapes"
    value {
      list {
        shape {
        }
      }
    }
  }
  attr {
    key: "dtype"
    value {
      type: DT_FLOAT
    }
  }
  attr {
    key: "value"
    value {
      tensor {
        dtype: DT_FLOAT
        tensor_shape {
        }
        float_val: 0.0
      }
    }
  }
}
node {
  name: "Full_Graph/adv_steps/truncated_normal/stddev"
  op: "Const"
  attr {
    key: "_output_shapes"
    value {
      list {
        shape {
        }
      }
    }
  }
  attr {
    key: "dtype"
    value {
      type: DT_FLOAT
    }
  }
  attr {
    key: "value"
    value {
      tensor {
        dtype: DT_FLOAT
        tensor_shape {
        }
        float_val: 0.05000000074505806
      }
    }
  }
}
node {
  name: "Full_Graph/adv_steps/truncated_normal/TruncatedNormal"
  op: "TruncatedNormal"
  input: "Full_Graph/adv_steps/truncated_normal/shape"
  attr {
    key: "T"
    value {
      type: DT_INT32
    }
  }
  attr {
    key: "_output_shapes"
    value {
      list {
        shape {
          dim {
            size: 5
          }
          dim {
            size: 5
          }
          dim {
            size: 3
          }
          dim {
            size: 16
          }
        }
      }
    }
  }
  attr {
    key: "dtype"
    value {
      type: DT_FLOAT
    }
  }
  attr {
    key: "seed"
    value {
      i: 0
    }
  }
  attr {
    key: "seed2"
    value {
      i: 0
    }
  }
}
node {
  name: "Full_Graph/adv_steps/truncated_normal/mul"
  op: "Mul"
  input: "Full_Graph/adv_steps/truncated_normal/TruncatedNormal"
  input: "Full_Graph/adv_steps/truncated_normal/stddev"
  attr {
    key: "T"
    value {
      type: DT_FLOAT
    }
  }
  attr {
    key: "_output_shapes"
    value {
      list {
        shape {
          dim {
            size: 5
          }
          dim {
            size: 5
          }
          dim {
            size: 3
          }
          dim {
            size: 16
          }
        }
      }
    }
  }
}
node {
  name: "Full_Graph/adv_steps/truncated_normal"
  op: "Add"
  input: "Full_Graph/adv_steps/truncated_normal/mul"
  input: "Full_Graph/adv_steps/truncated_normal/mean"
  attr {
    key: "T"
    value {
      type: DT_FLOAT
    }
  }
  attr {
    key: "_output_shapes"
    value {
      list {
        shape {
          dim {
            size: 5
          }
          dim {
            size: 5
          }
          dim {
            size: 3
          }
          dim {
            size: 16
          }
        }
      }
    }
  }
}
node {
  name: "Full_Graph/adv_steps/weight"
  op: "VariableV2"
  attr {
    key: "_output_shapes"
    value {
      list {
        shape {
          dim {
            size: 5
          }
          dim {
            size: 5
          }
          dim {
            size: 3
          }
          dim {
            size: 16
          }
        }
      }
    }
  }
  attr {
    key: "container"
    value {
      s: ""
    }
  }
  attr {
    key: "dtype"
    value {
      type: DT_FLOAT
    }
  }
  attr {
    key: "shape"
    value {
      shape {
        dim {
          size: 5
        }
        dim {
          size: 5
        }
        dim {
          size: 3
        }
        dim {
          size: 16
        }
      }
    }
  }
  attr {
    key: "shared_name"
    value {
      s: ""
    }
  }
}
node {
  name: "Full_Graph/adv_steps/weight/Assign"
  op: "Assign"
  input: "Full_Graph/adv_steps/weight"
  input: "Full_Graph/adv_steps/truncated_normal"
  attr {
    key: "T"
    value {
      type: DT_FLOAT
    }
  }
  attr {
    key: "_class"
    value {
      list {
        s: "loc:@Full_Graph/adv_steps/weight"
      }
    }
  }
  attr {
    key: "_output_shapes"
    value {
      list {
        shape {
          dim {
            size: 5
          }
          dim {
            size: 5
          }
          dim {
            size: 3
          }
          dim {
            size: 16
          }
        }
      }
    }
  }
  attr {
    key: "use_locking"
    value {
      b: true
    }
  }
  attr {
    key: "validate_shape"
    value {
      b: true
    }
  }
}
node {
  name: "Full_Graph/adv_steps/weight/read"
  op: "Identity"
  input: "Full_Graph/adv_steps/weight"
  attr {
    key: "T"
    value {
      type: DT_FLOAT
    }
  }
  attr {
    key: "_class"
    value {
      list {
        s: "loc:@Full_Graph/adv_steps/weight"
      }
    }
  }
  attr {
    key: "_output_shapes"
    value {
      list {
        shape {
          dim {
            size: 5
          }
          dim {
            size: 5
          }
          dim {
            size: 3
          }
          dim {
            size: 16
          }
        }
      }
    }
  }
}
node {
  name: "Full_Graph/adv_steps/Const"
  op: "Const"
  attr {
    key: "_output_shapes"
    value {
      list {
        shape {
          dim {
            size: 16
          }
        }
      }
    }
  }
  attr {
    key: "dtype"
    value {
      type: DT_FLOAT
    }
  }
  attr {
    key: "value"
    value {
      tensor {
        dtype: DT_FLOAT
        tensor_shape {
          dim {
            size: 16
          }
        }
        float_val: 0.05000000074505806
      }
    }
  }
}
node {
  name: "Full_Graph/adv_steps/bias"
  op: "VariableV2"
  attr {
    key: "_output_shapes"
    value {
      list {
        shape {
          dim {
            size: 16
          }
        }
      }
    }
  }
  attr {
    key: "container"
    value {
      s: ""
    }
  }
  attr {
    key: "dtype"
    value {
      type: DT_FLOAT
    }
  }
  attr {
    key: "shape"
    value {
      shape {
        dim {
          size: 16
        }
      }
    }
  }
  attr {
    key: "shared_name"
    value {
      s: ""
    }
  }
}
node {
  name: "Full_Graph/adv_steps/bias/Assign"
  op: "Assign"
  input: "Full_Graph/adv_steps/bias"
  input: "Full_Graph/adv_steps/Const"
  attr {
    key: "T"
    value {
      type: DT_FLOAT
    }
  }
  attr {
    key: "_class"
    value {
      list {
        s: "loc:@Full_Graph/adv_steps/bias"
      }
    }
  }
  attr {
    key: "_output_shapes"
    value {
      list {
        shape {
          dim {
            size: 16
          }
        }
      }
    }
  }
  attr {
    key: "use_locking"
    value {
      b: true
    }
  }
  attr {
    key: "validate_shape"
    value {
      b: true
    }
  }
}
node {
  name: "Full_Graph/adv_steps/bias/read"
  op: "Identity"
  input: "Full_Graph/adv_steps/bias"
  attr {
    key: "T"
    value {
      type: DT_FLOAT
    }
  }
  attr {
    key: "_class"
    value {
      list {
        s: "loc:@Full_Graph/adv_steps/bias"
      }
    }
  }
  attr {
    key: "_output_shapes"
    value {
      list {
        shape {
          dim {
            size: 16
          }
        }
      }
    }
  }
}
node {
  name: "Full_Graph/adv_steps/Conv2D"
  op: "Conv2D"
  input: "Full_Graph/input/Input_Tensor"
  input: "Full_Graph/adv_steps/weight/read"
  attr {
    key: "T"
    value {
      type: DT_FLOAT
    }
  }
  attr {
    key: "_output_shapes"
    value {
      list {
        shape {
          dim {
            size: -1
          }
          dim {
            size: 66
          }
          dim {
            size: 200
          }
          dim {
            size: 16
          }
        }
      }
    }
  }
  attr {
    key: "data_format"
    value {
      s: "NHWC"
    }
  }
  attr {
    key: "padding"
    value {
      s: "SAME"
    }
  }
  attr {
    key: "strides"
    value {
      list {
        i: 1
        i: 1
        i: 1
        i: 1
      }
    }
  }
  attr {
    key: "use_cudnn_on_gpu"
    value {
      b: true
    }
  }
}
node {
  name: "Full_Graph/adv_steps/add"
  op: "Add"
  input: "Full_Graph/adv_steps/Conv2D"
  input: "Full_Graph/adv_steps/bias/read"
  attr {
    key: "T"
    value {
      type: DT_FLOAT
    }
  }
  attr {
    key: "_output_shapes"
    value {
      list {
        shape {
          dim {
            size: -1
          }
          dim {
            size: 66
          }
          dim {
            size: 200
          }
          dim {
            size: 16
          }
        }
      }
    }
  }
}
node {
  name: "Full_Graph/adv_steps/MaxPool"
  op: "MaxPool"
  input: "Full_Graph/adv_steps/add"
  attr {
    key: "T"
    value {
      type: DT_FLOAT
    }
  }
  attr {
    key: "_output_shapes"
    value {
      list {
        shape {
          dim {
            size: -1
          }
          dim {
            size: 33
          }
          dim {
            size: 100
          }
          dim {
            size: 16
          }
        }
      }
    }
  }
  attr {
    key: "data_format"
    value {
      s: "NHWC"
    }
  }
  attr {
    key: "ksize"
    value {
      list {
        i: 1
        i: 2
        i: 2
        i: 1
      }
    }
  }
  attr {
    key: "padding"
    value {
      s: "SAME"
    }
  }
  attr {
    key: "strides"
    value {
      list {
        i: 1
        i: 2
        i: 2
        i: 1
      }
    }
  }
}
node {
  name: "Full_Graph/adv_steps/Relu"
  op: "Relu"
  input: "Full_Graph/adv_steps/MaxPool"
  attr {
    key: "T"
    value {
      type: DT_FLOAT
    }
  }
  attr {
    key: "_output_shapes"
    value {
      list {
        shape {
          dim {
            size: -1
          }
          dim {
            size: 33
          }
          dim {
            size: 100
          }
          dim {
            size: 16
          }
        }
      }
    }
  }
}
node {
  name: "Full_Graph/adv_steps/convLayer_0/weights/weights/tag"
  op: "Const"
  attr {
    key: "_output_shapes"
    value {
      list {
        shape {
        }
      }
    }
  }
  attr {
    key: "dtype"
    value {
      type: DT_STRING
    }
  }
  attr {
    key: "value"
    value {
      tensor {
        dtype: DT_STRING
        tensor_shape {
        }
        string_val: "Full_Graph/adv_steps/convLayer_0/weights/weights"
      }
    }
  }
}
node {
  name: "Full_Graph/adv_steps/convLayer_0/weights/weights"
  op: "HistogramSummary"
  input: "Full_Graph/adv_steps/convLayer_0/weights/weights/tag"
  input: "Full_Graph/adv_steps/weight/read"
  attr {
    key: "T"
    value {
      type: DT_FLOAT
    }
  }
  attr {
    key: "_output_shapes"
    value {
      list {
        shape {
        }
      }
    }
  }
}
node {
  name: "Full_Graph/adv_steps/convLayer_0/biases/biases/tag"
  op: "Const"
  attr {
    key: "_output_shapes"
    value {
      list {
        shape {
        }
      }
    }
  }
  attr {
    key: "dtype"
    value {
      type: DT_STRING
    }
  }
  attr {
    key: "value"
    value {
      tensor {
        dtype: DT_STRING
        tensor_shape {
        }
        string_val: "Full_Graph/adv_steps/convLayer_0/biases/biases"
      }
    }
  }
}
node {
  name: "Full_Graph/adv_steps/convLayer_0/biases/biases"
  op: "HistogramSummary"
  input: "Full_Graph/adv_steps/convLayer_0/biases/biases/tag"
  input: "Full_Graph/adv_steps/bias/read"
  attr {
    key: "T"
    value {
      type: DT_FLOAT
    }
  }
  attr {
    key: "_output_shapes"
    value {
      list {
        shape {
        }
      }
    }
  }
}
node {
  name: "Full_Graph/adv_steps/convLayer_0/logits/pre_activations/tag"
  op: "Const"
  attr {
    key: "_output_shapes"
    value {
      list {
        shape {
        }
      }
    }
  }
  attr {
    key: "dtype"
    value {
      type: DT_STRING
    }
  }
  attr {
    key: "value"
    value {
      tensor {
        dtype: DT_STRING
        tensor_shape {
        }
        string_val: "Full_Graph/adv_steps/convLayer_0/logits/pre_activations"
      }
    }
  }
}
node {
  name: "Full_Graph/adv_steps/convLayer_0/logits/pre_activations"
  op: "HistogramSummary"
  input: "Full_Graph/adv_steps/convLayer_0/logits/pre_activations/tag"
  input: "Full_Graph/adv_steps/Relu"
  attr {
    key: "T"
    value {
      type: DT_FLOAT
    }
  }
  attr {
    key: "_output_shapes"
    value {
      list {
        shape {
        }
      }
    }
  }
}
node {
  name: "Full_Graph/adv_steps/truncated_normal_1/shape"
  op: "Const"
  attr {
    key: "_output_shapes"
    value {
      list {
        shape {
          dim {
            size: 4
          }
        }
      }
    }
  }
  attr {
    key: "dtype"
    value {
      type: DT_INT32
    }
  }
  attr {
    key: "value"
    value {
      tensor {
        dtype: DT_INT32
        tensor_shape {
          dim {
            size: 4
          }
        }
        tensor_content: "\005\000\000\000\005\000\000\000\020\000\000\000 \000\000\000"
      }
    }
  }
}
node {
  name: "Full_Graph/adv_steps/truncated_normal_1/mean"
  op: "Const"
  attr {
    key: "_output_shapes"
    value {
      list {
        shape {
        }
      }
    }
  }
  attr {
    key: "dtype"
    value {
      type: DT_FLOAT
    }
  }
  attr {
    key: "value"
    value {
      tensor {
        dtype: DT_FLOAT
        tensor_shape {
        }
        float_val: 0.0
      }
    }
  }
}
node {
  name: "Full_Graph/adv_steps/truncated_normal_1/stddev"
  op: "Const"
  attr {
    key: "_output_shapes"
    value {
      list {
        shape {
        }
      }
    }
  }
  attr {
    key: "dtype"
    value {
      type: DT_FLOAT
    }
  }
  attr {
    key: "value"
    value {
      tensor {
        dtype: DT_FLOAT
        tensor_shape {
        }
        float_val: 0.05000000074505806
      }
    }
  }
}
node {
  name: "Full_Graph/adv_steps/truncated_normal_1/TruncatedNormal"
  op: "TruncatedNormal"
  input: "Full_Graph/adv_steps/truncated_normal_1/shape"
  attr {
    key: "T"
    value {
      type: DT_INT32
    }
  }
  attr {
    key: "_output_shapes"
    value {
      list {
        shape {
          dim {
            size: 5
          }
          dim {
            size: 5
          }
          dim {
            size: 16
          }
          dim {
            size: 32
          }
        }
      }
    }
  }
  attr {
    key: "dtype"
    value {
      type: DT_FLOAT
    }
  }
  attr {
    key: "seed"
    value {
      i: 0
    }
  }
  attr {
    key: "seed2"
    value {
      i: 0
    }
  }
}
node {
  name: "Full_Graph/adv_steps/truncated_normal_1/mul"
  op: "Mul"
  input: "Full_Graph/adv_steps/truncated_normal_1/TruncatedNormal"
  input: "Full_Graph/adv_steps/truncated_normal_1/stddev"
  attr {
    key: "T"
    value {
      type: DT_FLOAT
    }
  }
  attr {
    key: "_output_shapes"
    value {
      list {
        shape {
          dim {
            size: 5
          }
          dim {
            size: 5
          }
          dim {
            size: 16
          }
          dim {
            size: 32
          }
        }
      }
    }
  }
}
node {
  name: "Full_Graph/adv_steps/truncated_normal_1"
  op: "Add"
  input: "Full_Graph/adv_steps/truncated_normal_1/mul"
  input: "Full_Graph/adv_steps/truncated_normal_1/mean"
  attr {
    key: "T"
    value {
      type: DT_FLOAT
    }
  }
  attr {
    key: "_output_shapes"
    value {
      list {
        shape {
          dim {
            size: 5
          }
          dim {
            size: 5
          }
          dim {
            size: 16
          }
          dim {
            size: 32
          }
        }
      }
    }
  }
}
node {
  name: "Full_Graph/adv_steps/weight_1"
  op: "VariableV2"
  attr {
    key: "_output_shapes"
    value {
      list {
        shape {
          dim {
            size: 5
          }
          dim {
            size: 5
          }
          dim {
            size: 16
          }
          dim {
            size: 32
          }
        }
      }
    }
  }
  attr {
    key: "container"
    value {
      s: ""
    }
  }
  attr {
    key: "dtype"
    value {
      type: DT_FLOAT
    }
  }
  attr {
    key: "shape"
    value {
      shape {
        dim {
          size: 5
        }
        dim {
          size: 5
        }
        dim {
          size: 16
        }
        dim {
          size: 32
        }
      }
    }
  }
  attr {
    key: "shared_name"
    value {
      s: ""
    }
  }
}
node {
  name: "Full_Graph/adv_steps/weight_1/Assign"
  op: "Assign"
  input: "Full_Graph/adv_steps/weight_1"
  input: "Full_Graph/adv_steps/truncated_normal_1"
  attr {
    key: "T"
    value {
      type: DT_FLOAT
    }
  }
  attr {
    key: "_class"
    value {
      list {
        s: "loc:@Full_Graph/adv_steps/weight_1"
      }
    }
  }
  attr {
    key: "_output_shapes"
    value {
      list {
        shape {
          dim {
            size: 5
          }
          dim {
            size: 5
          }
          dim {
            size: 16
          }
          dim {
            size: 32
          }
        }
      }
    }
  }
  attr {
    key: "use_locking"
    value {
      b: true
    }
  }
  attr {
    key: "validate_shape"
    value {
      b: true
    }
  }
}
node {
  name: "Full_Graph/adv_steps/weight_1/read"
  op: "Identity"
  input: "Full_Graph/adv_steps/weight_1"
  attr {
    key: "T"
    value {
      type: DT_FLOAT
    }
  }
  attr {
    key: "_class"
    value {
      list {
        s: "loc:@Full_Graph/adv_steps/weight_1"
      }
    }
  }
  attr {
    key: "_output_shapes"
    value {
      list {
        shape {
          dim {
            size: 5
          }
          dim {
            size: 5
          }
          dim {
            size: 16
          }
          dim {
            size: 32
          }
        }
      }
    }
  }
}
node {
  name: "Full_Graph/adv_steps/Const_1"
  op: "Const"
  attr {
    key: "_output_shapes"
    value {
      list {
        shape {
          dim {
            size: 32
          }
        }
      }
    }
  }
  attr {
    key: "dtype"
    value {
      type: DT_FLOAT
    }
  }
  attr {
    key: "value"
    value {
      tensor {
        dtype: DT_FLOAT
        tensor_shape {
          dim {
            size: 32
          }
        }
        float_val: 0.05000000074505806
      }
    }
  }
}
node {
  name: "Full_Graph/adv_steps/bias_1"
  op: "VariableV2"
  attr {
    key: "_output_shapes"
    value {
      list {
        shape {
          dim {
            size: 32
          }
        }
      }
    }
  }
  attr {
    key: "container"
    value {
      s: ""
    }
  }
  attr {
    key: "dtype"
    value {
      type: DT_FLOAT
    }
  }
  attr {
    key: "shape"
    value {
      shape {
        dim {
          size: 32
        }
      }
    }
  }
  attr {
    key: "shared_name"
    value {
      s: ""
    }
  }
}
node {
  name: "Full_Graph/adv_steps/bias_1/Assign"
  op: "Assign"
  input: "Full_Graph/adv_steps/bias_1"
  input: "Full_Graph/adv_steps/Const_1"
  attr {
    key: "T"
    value {
      type: DT_FLOAT
    }
  }
  attr {
    key: "_class"
    value {
      list {
        s: "loc:@Full_Graph/adv_steps/bias_1"
      }
    }
  }
  attr {
    key: "_output_shapes"
    value {
      list {
        shape {
          dim {
            size: 32
          }
        }
      }
    }
  }
  attr {
    key: "use_locking"
    value {
      b: true
    }
  }
  attr {
    key: "validate_shape"
    value {
      b: true
    }
  }
}
node {
  name: "Full_Graph/adv_steps/bias_1/read"
  op: "Identity"
  input: "Full_Graph/adv_steps/bias_1"
  attr {
    key: "T"
    value {
      type: DT_FLOAT
    }
  }
  attr {
    key: "_class"
    value {
      list {
        s: "loc:@Full_Graph/adv_steps/bias_1"
      }
    }
  }
  attr {
    key: "_output_shapes"
    value {
      list {
        shape {
          dim {
            size: 32
          }
        }
      }
    }
  }
}
node {
  name: "Full_Graph/adv_steps/Conv2D_1"
  op: "Conv2D"
  input: "Full_Graph/adv_steps/Relu"
  input: "Full_Graph/adv_steps/weight_1/read"
  attr {
    key: "T"
    value {
      type: DT_FLOAT
    }
  }
  attr {
    key: "_output_shapes"
    value {
      list {
        shape {
          dim {
            size: -1
          }
          dim {
            size: 33
          }
          dim {
            size: 100
          }
          dim {
            size: 32
          }
        }
      }
    }
  }
  attr {
    key: "data_format"
    value {
      s: "NHWC"
    }
  }
  attr {
    key: "padding"
    value {
      s: "SAME"
    }
  }
  attr {
    key: "strides"
    value {
      list {
        i: 1
        i: 1
        i: 1
        i: 1
      }
    }
  }
  attr {
    key: "use_cudnn_on_gpu"
    value {
      b: true
    }
  }
}
node {
  name: "Full_Graph/adv_steps/add_1"
  op: "Add"
  input: "Full_Graph/adv_steps/Conv2D_1"
  input: "Full_Graph/adv_steps/bias_1/read"
  attr {
    key: "T"
    value {
      type: DT_FLOAT
    }
  }
  attr {
    key: "_output_shapes"
    value {
      list {
        shape {
          dim {
            size: -1
          }
          dim {
            size: 33
          }
          dim {
            size: 100
          }
          dim {
            size: 32
          }
        }
      }
    }
  }
}
node {
  name: "Full_Graph/adv_steps/MaxPool_1"
  op: "MaxPool"
  input: "Full_Graph/adv_steps/add_1"
  attr {
    key: "T"
    value {
      type: DT_FLOAT
    }
  }
  attr {
    key: "_output_shapes"
    value {
      list {
        shape {
          dim {
            size: -1
          }
          dim {
            size: 17
          }
          dim {
            size: 50
          }
          dim {
            size: 32
          }
        }
      }
    }
  }
  attr {
    key: "data_format"
    value {
      s: "NHWC"
    }
  }
  attr {
    key: "ksize"
    value {
      list {
        i: 1
        i: 2
        i: 2
        i: 1
      }
    }
  }
  attr {
    key: "padding"
    value {
      s: "SAME"
    }
  }
  attr {
    key: "strides"
    value {
      list {
        i: 1
        i: 2
        i: 2
        i: 1
      }
    }
  }
}
node {
  name: "Full_Graph/adv_steps/Relu_1"
  op: "Relu"
  input: "Full_Graph/adv_steps/MaxPool_1"
  attr {
    key: "T"
    value {
      type: DT_FLOAT
    }
  }
  attr {
    key: "_output_shapes"
    value {
      list {
        shape {
          dim {
            size: -1
          }
          dim {
            size: 17
          }
          dim {
            size: 50
          }
          dim {
            size: 32
          }
        }
      }
    }
  }
}
node {
  name: "Full_Graph/adv_steps/convLayer_1/weights/weights/tag"
  op: "Const"
  attr {
    key: "_output_shapes"
    value {
      list {
        shape {
        }
      }
    }
  }
  attr {
    key: "dtype"
    value {
      type: DT_STRING
    }
  }
  attr {
    key: "value"
    value {
      tensor {
        dtype: DT_STRING
        tensor_shape {
        }
        string_val: "Full_Graph/adv_steps/convLayer_1/weights/weights"
      }
    }
  }
}
node {
  name: "Full_Graph/adv_steps/convLayer_1/weights/weights"
  op: "HistogramSummary"
  input: "Full_Graph/adv_steps/convLayer_1/weights/weights/tag"
  input: "Full_Graph/adv_steps/weight_1/read"
  attr {
    key: "T"
    value {
      type: DT_FLOAT
    }
  }
  attr {
    key: "_output_shapes"
    value {
      list {
        shape {
        }
      }
    }
  }
}
node {
  name: "Full_Graph/adv_steps/convLayer_1/biases/biases/tag"
  op: "Const"
  attr {
    key: "_output_shapes"
    value {
      list {
        shape {
        }
      }
    }
  }
  attr {
    key: "dtype"
    value {
      type: DT_STRING
    }
  }
  attr {
    key: "value"
    value {
      tensor {
        dtype: DT_STRING
        tensor_shape {
        }
        string_val: "Full_Graph/adv_steps/convLayer_1/biases/biases"
      }
    }
  }
}
node {
  name: "Full_Graph/adv_steps/convLayer_1/biases/biases"
  op: "HistogramSummary"
  input: "Full_Graph/adv_steps/convLayer_1/biases/biases/tag"
  input: "Full_Graph/adv_steps/bias_1/read"
  attr {
    key: "T"
    value {
      type: DT_FLOAT
    }
  }
  attr {
    key: "_output_shapes"
    value {
      list {
        shape {
        }
      }
    }
  }
}
node {
  name: "Full_Graph/adv_steps/convLayer_1/logits/pre_activations/tag"
  op: "Const"
  attr {
    key: "_output_shapes"
    value {
      list {
        shape {
        }
      }
    }
  }
  attr {
    key: "dtype"
    value {
      type: DT_STRING
    }
  }
  attr {
    key: "value"
    value {
      tensor {
        dtype: DT_STRING
        tensor_shape {
        }
        string_val: "Full_Graph/adv_steps/convLayer_1/logits/pre_activations"
      }
    }
  }
}
node {
  name: "Full_Graph/adv_steps/convLayer_1/logits/pre_activations"
  op: "HistogramSummary"
  input: "Full_Graph/adv_steps/convLayer_1/logits/pre_activations/tag"
  input: "Full_Graph/adv_steps/Relu_1"
  attr {
    key: "T"
    value {
      type: DT_FLOAT
    }
  }
  attr {
    key: "_output_shapes"
    value {
      list {
        shape {
        }
      }
    }
  }
}
node {
  name: "Full_Graph/adv_steps/truncated_normal_2/shape"
  op: "Const"
  attr {
    key: "_output_shapes"
    value {
      list {
        shape {
          dim {
            size: 4
          }
        }
      }
    }
  }
  attr {
    key: "dtype"
    value {
      type: DT_INT32
    }
  }
  attr {
    key: "value"
    value {
      tensor {
        dtype: DT_INT32
        tensor_shape {
          dim {
            size: 4
          }
        }
        tensor_content: "\005\000\000\000\005\000\000\000 \000\000\0000\000\000\000"
      }
    }
  }
}
node {
  name: "Full_Graph/adv_steps/truncated_normal_2/mean"
  op: "Const"
  attr {
    key: "_output_shapes"
    value {
      list {
        shape {
        }
      }
    }
  }
  attr {
    key: "dtype"
    value {
      type: DT_FLOAT
    }
  }
  attr {
    key: "value"
    value {
      tensor {
        dtype: DT_FLOAT
        tensor_shape {
        }
        float_val: 0.0
      }
    }
  }
}
node {
  name: "Full_Graph/adv_steps/truncated_normal_2/stddev"
  op: "Const"
  attr {
    key: "_output_shapes"
    value {
      list {
        shape {
        }
      }
    }
  }
  attr {
    key: "dtype"
    value {
      type: DT_FLOAT
    }
  }
  attr {
    key: "value"
    value {
      tensor {
        dtype: DT_FLOAT
        tensor_shape {
        }
        float_val: 0.05000000074505806
      }
    }
  }
}
node {
  name: "Full_Graph/adv_steps/truncated_normal_2/TruncatedNormal"
  op: "TruncatedNormal"
  input: "Full_Graph/adv_steps/truncated_normal_2/shape"
  attr {
    key: "T"
    value {
      type: DT_INT32
    }
  }
  attr {
    key: "_output_shapes"
    value {
      list {
        shape {
          dim {
            size: 5
          }
          dim {
            size: 5
          }
          dim {
            size: 32
          }
          dim {
            size: 48
          }
        }
      }
    }
  }
  attr {
    key: "dtype"
    value {
      type: DT_FLOAT
    }
  }
  attr {
    key: "seed"
    value {
      i: 0
    }
  }
  attr {
    key: "seed2"
    value {
      i: 0
    }
  }
}
node {
  name: "Full_Graph/adv_steps/truncated_normal_2/mul"
  op: "Mul"
  input: "Full_Graph/adv_steps/truncated_normal_2/TruncatedNormal"
  input: "Full_Graph/adv_steps/truncated_normal_2/stddev"
  attr {
    key: "T"
    value {
      type: DT_FLOAT
    }
  }
  attr {
    key: "_output_shapes"
    value {
      list {
        shape {
          dim {
            size: 5
          }
          dim {
            size: 5
          }
          dim {
            size: 32
          }
          dim {
            size: 48
          }
        }
      }
    }
  }
}
node {
  name: "Full_Graph/adv_steps/truncated_normal_2"
  op: "Add"
  input: "Full_Graph/adv_steps/truncated_normal_2/mul"
  input: "Full_Graph/adv_steps/truncated_normal_2/mean"
  attr {
    key: "T"
    value {
      type: DT_FLOAT
    }
  }
  attr {
    key: "_output_shapes"
    value {
      list {
        shape {
          dim {
            size: 5
          }
          dim {
            size: 5
          }
          dim {
            size: 32
          }
          dim {
            size: 48
          }
        }
      }
    }
  }
}
node {
  name: "Full_Graph/adv_steps/weight_2"
  op: "VariableV2"
  attr {
    key: "_output_shapes"
    value {
      list {
        shape {
          dim {
            size: 5
          }
          dim {
            size: 5
          }
          dim {
            size: 32
          }
          dim {
            size: 48
          }
        }
      }
    }
  }
  attr {
    key: "container"
    value {
      s: ""
    }
  }
  attr {
    key: "dtype"
    value {
      type: DT_FLOAT
    }
  }
  attr {
    key: "shape"
    value {
      shape {
        dim {
          size: 5
        }
        dim {
          size: 5
        }
        dim {
          size: 32
        }
        dim {
          size: 48
        }
      }
    }
  }
  attr {
    key: "shared_name"
    value {
      s: ""
    }
  }
}
node {
  name: "Full_Graph/adv_steps/weight_2/Assign"
  op: "Assign"
  input: "Full_Graph/adv_steps/weight_2"
  input: "Full_Graph/adv_steps/truncated_normal_2"
  attr {
    key: "T"
    value {
      type: DT_FLOAT
    }
  }
  attr {
    key: "_class"
    value {
      list {
        s: "loc:@Full_Graph/adv_steps/weight_2"
      }
    }
  }
  attr {
    key: "_output_shapes"
    value {
      list {
        shape {
          dim {
            size: 5
          }
          dim {
            size: 5
          }
          dim {
            size: 32
          }
          dim {
            size: 48
          }
        }
      }
    }
  }
  attr {
    key: "use_locking"
    value {
      b: true
    }
  }
  attr {
    key: "validate_shape"
    value {
      b: true
    }
  }
}
node {
  name: "Full_Graph/adv_steps/weight_2/read"
  op: "Identity"
  input: "Full_Graph/adv_steps/weight_2"
  attr {
    key: "T"
    value {
      type: DT_FLOAT
    }
  }
  attr {
    key: "_class"
    value {
      list {
        s: "loc:@Full_Graph/adv_steps/weight_2"
      }
    }
  }
  attr {
    key: "_output_shapes"
    value {
      list {
        shape {
          dim {
            size: 5
          }
          dim {
            size: 5
          }
          dim {
            size: 32
          }
          dim {
            size: 48
          }
        }
      }
    }
  }
}
node {
  name: "Full_Graph/adv_steps/Const_2"
  op: "Const"
  attr {
    key: "_output_shapes"
    value {
      list {
        shape {
          dim {
            size: 48
          }
        }
      }
    }
  }
  attr {
    key: "dtype"
    value {
      type: DT_FLOAT
    }
  }
  attr {
    key: "value"
    value {
      tensor {
        dtype: DT_FLOAT
        tensor_shape {
          dim {
            size: 48
          }
        }
        float_val: 0.05000000074505806
      }
    }
  }
}
node {
  name: "Full_Graph/adv_steps/bias_2"
  op: "VariableV2"
  attr {
    key: "_output_shapes"
    value {
      list {
        shape {
          dim {
            size: 48
          }
        }
      }
    }
  }
  attr {
    key: "container"
    value {
      s: ""
    }
  }
  attr {
    key: "dtype"
    value {
      type: DT_FLOAT
    }
  }
  attr {
    key: "shape"
    value {
      shape {
        dim {
          size: 48
        }
      }
    }
  }
  attr {
    key: "shared_name"
    value {
      s: ""
    }
  }
}
node {
  name: "Full_Graph/adv_steps/bias_2/Assign"
  op: "Assign"
  input: "Full_Graph/adv_steps/bias_2"
  input: "Full_Graph/adv_steps/Const_2"
  attr {
    key: "T"
    value {
      type: DT_FLOAT
    }
  }
  attr {
    key: "_class"
    value {
      list {
        s: "loc:@Full_Graph/adv_steps/bias_2"
      }
    }
  }
  attr {
    key: "_output_shapes"
    value {
      list {
        shape {
          dim {
            size: 48
          }
        }
      }
    }
  }
  attr {
    key: "use_locking"
    value {
      b: true
    }
  }
  attr {
    key: "validate_shape"
    value {
      b: true
    }
  }
}
node {
  name: "Full_Graph/adv_steps/bias_2/read"
  op: "Identity"
  input: "Full_Graph/adv_steps/bias_2"
  attr {
    key: "T"
    value {
      type: DT_FLOAT
    }
  }
  attr {
    key: "_class"
    value {
      list {
        s: "loc:@Full_Graph/adv_steps/bias_2"
      }
    }
  }
  attr {
    key: "_output_shapes"
    value {
      list {
        shape {
          dim {
            size: 48
          }
        }
      }
    }
  }
}
node {
  name: "Full_Graph/adv_steps/Conv2D_2"
  op: "Conv2D"
  input: "Full_Graph/adv_steps/Relu_1"
  input: "Full_Graph/adv_steps/weight_2/read"
  attr {
    key: "T"
    value {
      type: DT_FLOAT
    }
  }
  attr {
    key: "_output_shapes"
    value {
      list {
        shape {
          dim {
            size: -1
          }
          dim {
            size: 17
          }
          dim {
            size: 50
          }
          dim {
            size: 48
          }
        }
      }
    }
  }
  attr {
    key: "data_format"
    value {
      s: "NHWC"
    }
  }
  attr {
    key: "padding"
    value {
      s: "SAME"
    }
  }
  attr {
    key: "strides"
    value {
      list {
        i: 1
        i: 1
        i: 1
        i: 1
      }
    }
  }
  attr {
    key: "use_cudnn_on_gpu"
    value {
      b: true
    }
  }
}
node {
  name: "Full_Graph/adv_steps/add_2"
  op: "Add"
  input: "Full_Graph/adv_steps/Conv2D_2"
  input: "Full_Graph/adv_steps/bias_2/read"
  attr {
    key: "T"
    value {
      type: DT_FLOAT
    }
  }
  attr {
    key: "_output_shapes"
    value {
      list {
        shape {
          dim {
            size: -1
          }
          dim {
            size: 17
          }
          dim {
            size: 50
          }
          dim {
            size: 48
          }
        }
      }
    }
  }
}
node {
  name: "Full_Graph/adv_steps/MaxPool_2"
  op: "MaxPool"
  input: "Full_Graph/adv_steps/add_2"
  attr {
    key: "T"
    value {
      type: DT_FLOAT
    }
  }
  attr {
    key: "_output_shapes"
    value {
      list {
        shape {
          dim {
            size: -1
          }
          dim {
            size: 9
          }
          dim {
            size: 25
          }
          dim {
            size: 48
          }
        }
      }
    }
  }
  attr {
    key: "data_format"
    value {
      s: "NHWC"
    }
  }
  attr {
    key: "ksize"
    value {
      list {
        i: 1
        i: 2
        i: 2
        i: 1
      }
    }
  }
  attr {
    key: "padding"
    value {
      s: "SAME"
    }
  }
  attr {
    key: "strides"
    value {
      list {
        i: 1
        i: 2
        i: 2
        i: 1
      }
    }
  }
}
node {
  name: "Full_Graph/adv_steps/Relu_2"
  op: "Relu"
  input: "Full_Graph/adv_steps/MaxPool_2"
  attr {
    key: "T"
    value {
      type: DT_FLOAT
    }
  }
  attr {
    key: "_output_shapes"
    value {
      list {
        shape {
          dim {
            size: -1
          }
          dim {
            size: 9
          }
          dim {
            size: 25
          }
          dim {
            size: 48
          }
        }
      }
    }
  }
}
node {
  name: "Full_Graph/adv_steps/convLayer_2/weights/weights/tag"
  op: "Const"
  attr {
    key: "_output_shapes"
    value {
      list {
        shape {
        }
      }
    }
  }
  attr {
    key: "dtype"
    value {
      type: DT_STRING
    }
  }
  attr {
    key: "value"
    value {
      tensor {
        dtype: DT_STRING
        tensor_shape {
        }
        string_val: "Full_Graph/adv_steps/convLayer_2/weights/weights"
      }
    }
  }
}
node {
  name: "Full_Graph/adv_steps/convLayer_2/weights/weights"
  op: "HistogramSummary"
  input: "Full_Graph/adv_steps/convLayer_2/weights/weights/tag"
  input: "Full_Graph/adv_steps/weight_2/read"
  attr {
    key: "T"
    value {
      type: DT_FLOAT
    }
  }
  attr {
    key: "_output_shapes"
    value {
      list {
        shape {
        }
      }
    }
  }
}
node {
  name: "Full_Graph/adv_steps/convLayer_2/biases/biases/tag"
  op: "Const"
  attr {
    key: "_output_shapes"
    value {
      list {
        shape {
        }
      }
    }
  }
  attr {
    key: "dtype"
    value {
      type: DT_STRING
    }
  }
  attr {
    key: "value"
    value {
      tensor {
        dtype: DT_STRING
        tensor_shape {
        }
        string_val: "Full_Graph/adv_steps/convLayer_2/biases/biases"
      }
    }
  }
}
node {
  name: "Full_Graph/adv_steps/convLayer_2/biases/biases"
  op: "HistogramSummary"
  input: "Full_Graph/adv_steps/convLayer_2/biases/biases/tag"
  input: "Full_Graph/adv_steps/bias_2/read"
  attr {
    key: "T"
    value {
      type: DT_FLOAT
    }
  }
  attr {
    key: "_output_shapes"
    value {
      list {
        shape {
        }
      }
    }
  }
}
node {
  name: "Full_Graph/adv_steps/convLayer_2/logits/pre_activations/tag"
  op: "Const"
  attr {
    key: "_output_shapes"
    value {
      list {
        shape {
        }
      }
    }
  }
  attr {
    key: "dtype"
    value {
      type: DT_STRING
    }
  }
  attr {
    key: "value"
    value {
      tensor {
        dtype: DT_STRING
        tensor_shape {
        }
        string_val: "Full_Graph/adv_steps/convLayer_2/logits/pre_activations"
      }
    }
  }
}
node {
  name: "Full_Graph/adv_steps/convLayer_2/logits/pre_activations"
  op: "HistogramSummary"
  input: "Full_Graph/adv_steps/convLayer_2/logits/pre_activations/tag"
  input: "Full_Graph/adv_steps/Relu_2"
  attr {
    key: "T"
    value {
      type: DT_FLOAT
    }
  }
  attr {
    key: "_output_shapes"
    value {
      list {
        shape {
        }
      }
    }
  }
}
node {
  name: "Full_Graph/adv_steps/truncated_normal_3/shape"
  op: "Const"
  attr {
    key: "_output_shapes"
    value {
      list {
        shape {
          dim {
            size: 4
          }
        }
      }
    }
  }
  attr {
    key: "dtype"
    value {
      type: DT_INT32
    }
  }
  attr {
    key: "value"
    value {
      tensor {
        dtype: DT_INT32
        tensor_shape {
          dim {
            size: 4
          }
        }
        tensor_content: "\005\000\000\000\005\000\000\0000\000\000\000@\000\000\000"
      }
    }
  }
}
node {
  name: "Full_Graph/adv_steps/truncated_normal_3/mean"
  op: "Const"
  attr {
    key: "_output_shapes"
    value {
      list {
        shape {
        }
      }
    }
  }
  attr {
    key: "dtype"
    value {
      type: DT_FLOAT
    }
  }
  attr {
    key: "value"
    value {
      tensor {
        dtype: DT_FLOAT
        tensor_shape {
        }
        float_val: 0.0
      }
    }
  }
}
node {
  name: "Full_Graph/adv_steps/truncated_normal_3/stddev"
  op: "Const"
  attr {
    key: "_output_shapes"
    value {
      list {
        shape {
        }
      }
    }
  }
  attr {
    key: "dtype"
    value {
      type: DT_FLOAT
    }
  }
  attr {
    key: "value"
    value {
      tensor {
        dtype: DT_FLOAT
        tensor_shape {
        }
        float_val: 0.05000000074505806
      }
    }
  }
}
node {
  name: "Full_Graph/adv_steps/truncated_normal_3/TruncatedNormal"
  op: "TruncatedNormal"
  input: "Full_Graph/adv_steps/truncated_normal_3/shape"
  attr {
    key: "T"
    value {
      type: DT_INT32
    }
  }
  attr {
    key: "_output_shapes"
    value {
      list {
        shape {
          dim {
            size: 5
          }
          dim {
            size: 5
          }
          dim {
            size: 48
          }
          dim {
            size: 64
          }
        }
      }
    }
  }
  attr {
    key: "dtype"
    value {
      type: DT_FLOAT
    }
  }
  attr {
    key: "seed"
    value {
      i: 0
    }
  }
  attr {
    key: "seed2"
    value {
      i: 0
    }
  }
}
node {
  name: "Full_Graph/adv_steps/truncated_normal_3/mul"
  op: "Mul"
  input: "Full_Graph/adv_steps/truncated_normal_3/TruncatedNormal"
  input: "Full_Graph/adv_steps/truncated_normal_3/stddev"
  attr {
    key: "T"
    value {
      type: DT_FLOAT
    }
  }
  attr {
    key: "_output_shapes"
    value {
      list {
        shape {
          dim {
            size: 5
          }
          dim {
            size: 5
          }
          dim {
            size: 48
          }
          dim {
            size: 64
          }
        }
      }
    }
  }
}
node {
  name: "Full_Graph/adv_steps/truncated_normal_3"
  op: "Add"
  input: "Full_Graph/adv_steps/truncated_normal_3/mul"
  input: "Full_Graph/adv_steps/truncated_normal_3/mean"
  attr {
    key: "T"
    value {
      type: DT_FLOAT
    }
  }
  attr {
    key: "_output_shapes"
    value {
      list {
        shape {
          dim {
            size: 5
          }
          dim {
            size: 5
          }
          dim {
            size: 48
          }
          dim {
            size: 64
          }
        }
      }
    }
  }
}
node {
  name: "Full_Graph/adv_steps/weight_3"
  op: "VariableV2"
  attr {
    key: "_output_shapes"
    value {
      list {
        shape {
          dim {
            size: 5
          }
          dim {
            size: 5
          }
          dim {
            size: 48
          }
          dim {
            size: 64
          }
        }
      }
    }
  }
  attr {
    key: "container"
    value {
      s: ""
    }
  }
  attr {
    key: "dtype"
    value {
      type: DT_FLOAT
    }
  }
  attr {
    key: "shape"
    value {
      shape {
        dim {
          size: 5
        }
        dim {
          size: 5
        }
        dim {
          size: 48
        }
        dim {
          size: 64
        }
      }
    }
  }
  attr {
    key: "shared_name"
    value {
      s: ""
    }
  }
}
node {
  name: "Full_Graph/adv_steps/weight_3/Assign"
  op: "Assign"
  input: "Full_Graph/adv_steps/weight_3"
  input: "Full_Graph/adv_steps/truncated_normal_3"
  attr {
    key: "T"
    value {
      type: DT_FLOAT
    }
  }
  attr {
    key: "_class"
    value {
      list {
        s: "loc:@Full_Graph/adv_steps/weight_3"
      }
    }
  }
  attr {
    key: "_output_shapes"
    value {
      list {
        shape {
          dim {
            size: 5
          }
          dim {
            size: 5
          }
          dim {
            size: 48
          }
          dim {
            size: 64
          }
        }
      }
    }
  }
  attr {
    key: "use_locking"
    value {
      b: true
    }
  }
  attr {
    key: "validate_shape"
    value {
      b: true
    }
  }
}
node {
  name: "Full_Graph/adv_steps/weight_3/read"
  op: "Identity"
  input: "Full_Graph/adv_steps/weight_3"
  attr {
    key: "T"
    value {
      type: DT_FLOAT
    }
  }
  attr {
    key: "_class"
    value {
      list {
        s: "loc:@Full_Graph/adv_steps/weight_3"
      }
    }
  }
  attr {
    key: "_output_shapes"
    value {
      list {
        shape {
          dim {
            size: 5
          }
          dim {
            size: 5
          }
          dim {
            size: 48
          }
          dim {
            size: 64
          }
        }
      }
    }
  }
}
node {
  name: "Full_Graph/adv_steps/Const_3"
  op: "Const"
  attr {
    key: "_output_shapes"
    value {
      list {
        shape {
          dim {
            size: 64
          }
        }
      }
    }
  }
  attr {
    key: "dtype"
    value {
      type: DT_FLOAT
    }
  }
  attr {
    key: "value"
    value {
      tensor {
        dtype: DT_FLOAT
        tensor_shape {
          dim {
            size: 64
          }
        }
        float_val: 0.05000000074505806
      }
    }
  }
}
node {
  name: "Full_Graph/adv_steps/bias_3"
  op: "VariableV2"
  attr {
    key: "_output_shapes"
    value {
      list {
        shape {
          dim {
            size: 64
          }
        }
      }
    }
  }
  attr {
    key: "container"
    value {
      s: ""
    }
  }
  attr {
    key: "dtype"
    value {
      type: DT_FLOAT
    }
  }
  attr {
    key: "shape"
    value {
      shape {
        dim {
          size: 64
        }
      }
    }
  }
  attr {
    key: "shared_name"
    value {
      s: ""
    }
  }
}
node {
  name: "Full_Graph/adv_steps/bias_3/Assign"
  op: "Assign"
  input: "Full_Graph/adv_steps/bias_3"
  input: "Full_Graph/adv_steps/Const_3"
  attr {
    key: "T"
    value {
      type: DT_FLOAT
    }
  }
  attr {
    key: "_class"
    value {
      list {
        s: "loc:@Full_Graph/adv_steps/bias_3"
      }
    }
  }
  attr {
    key: "_output_shapes"
    value {
      list {
        shape {
          dim {
            size: 64
          }
        }
      }
    }
  }
  attr {
    key: "use_locking"
    value {
      b: true
    }
  }
  attr {
    key: "validate_shape"
    value {
      b: true
    }
  }
}
node {
  name: "Full_Graph/adv_steps/bias_3/read"
  op: "Identity"
  input: "Full_Graph/adv_steps/bias_3"
  attr {
    key: "T"
    value {
      type: DT_FLOAT
    }
  }
  attr {
    key: "_class"
    value {
      list {
        s: "loc:@Full_Graph/adv_steps/bias_3"
      }
    }
  }
  attr {
    key: "_output_shapes"
    value {
      list {
        shape {
          dim {
            size: 64
          }
        }
      }
    }
  }
}
node {
  name: "Full_Graph/adv_steps/Conv2D_3"
  op: "Conv2D"
  input: "Full_Graph/adv_steps/Relu_2"
  input: "Full_Graph/adv_steps/weight_3/read"
  attr {
    key: "T"
    value {
      type: DT_FLOAT
    }
  }
  attr {
    key: "_output_shapes"
    value {
      list {
        shape {
          dim {
            size: -1
          }
          dim {
            size: 9
          }
          dim {
            size: 25
          }
          dim {
            size: 64
          }
        }
      }
    }
  }
  attr {
    key: "data_format"
    value {
      s: "NHWC"
    }
  }
  attr {
    key: "padding"
    value {
      s: "SAME"
    }
  }
  attr {
    key: "strides"
    value {
      list {
        i: 1
        i: 1
        i: 1
        i: 1
      }
    }
  }
  attr {
    key: "use_cudnn_on_gpu"
    value {
      b: true
    }
  }
}
node {
  name: "Full_Graph/adv_steps/add_3"
  op: "Add"
  input: "Full_Graph/adv_steps/Conv2D_3"
  input: "Full_Graph/adv_steps/bias_3/read"
  attr {
    key: "T"
    value {
      type: DT_FLOAT
    }
  }
  attr {
    key: "_output_shapes"
    value {
      list {
        shape {
          dim {
            size: -1
          }
          dim {
            size: 9
          }
          dim {
            size: 25
          }
          dim {
            size: 64
          }
        }
      }
    }
  }
}
node {
  name: "Full_Graph/adv_steps/MaxPool_3"
  op: "MaxPool"
  input: "Full_Graph/adv_steps/add_3"
  attr {
    key: "T"
    value {
      type: DT_FLOAT
    }
  }
  attr {
    key: "_output_shapes"
    value {
      list {
        shape {
          dim {
            size: -1
          }
          dim {
            size: 5
          }
          dim {
            size: 13
          }
          dim {
            size: 64
          }
        }
      }
    }
  }
  attr {
    key: "data_format"
    value {
      s: "NHWC"
    }
  }
  attr {
    key: "ksize"
    value {
      list {
        i: 1
        i: 2
        i: 2
        i: 1
      }
    }
  }
  attr {
    key: "padding"
    value {
      s: "SAME"
    }
  }
  attr {
    key: "strides"
    value {
      list {
        i: 1
        i: 2
        i: 2
        i: 1
      }
    }
  }
}
node {
  name: "Full_Graph/adv_steps/Relu_3"
  op: "Relu"
  input: "Full_Graph/adv_steps/MaxPool_3"
  attr {
    key: "T"
    value {
      type: DT_FLOAT
    }
  }
  attr {
    key: "_output_shapes"
    value {
      list {
        shape {
          dim {
            size: -1
          }
          dim {
            size: 5
          }
          dim {
            size: 13
          }
          dim {
            size: 64
          }
        }
      }
    }
  }
}
node {
  name: "Full_Graph/adv_steps/convLayer_3/weights/weights/tag"
  op: "Const"
  attr {
    key: "_output_shapes"
    value {
      list {
        shape {
        }
      }
    }
  }
  attr {
    key: "dtype"
    value {
      type: DT_STRING
    }
  }
  attr {
    key: "value"
    value {
      tensor {
        dtype: DT_STRING
        tensor_shape {
        }
        string_val: "Full_Graph/adv_steps/convLayer_3/weights/weights"
      }
    }
  }
}
node {
  name: "Full_Graph/adv_steps/convLayer_3/weights/weights"
  op: "HistogramSummary"
  input: "Full_Graph/adv_steps/convLayer_3/weights/weights/tag"
  input: "Full_Graph/adv_steps/weight_3/read"
  attr {
    key: "T"
    value {
      type: DT_FLOAT
    }
  }
  attr {
    key: "_output_shapes"
    value {
      list {
        shape {
        }
      }
    }
  }
}
node {
  name: "Full_Graph/adv_steps/convLayer_3/biases/biases/tag"
  op: "Const"
  attr {
    key: "_output_shapes"
    value {
      list {
        shape {
        }
      }
    }
  }
  attr {
    key: "dtype"
    value {
      type: DT_STRING
    }
  }
  attr {
    key: "value"
    value {
      tensor {
        dtype: DT_STRING
        tensor_shape {
        }
        string_val: "Full_Graph/adv_steps/convLayer_3/biases/biases"
      }
    }
  }
}
node {
  name: "Full_Graph/adv_steps/convLayer_3/biases/biases"
  op: "HistogramSummary"
  input: "Full_Graph/adv_steps/convLayer_3/biases/biases/tag"
  input: "Full_Graph/adv_steps/bias_3/read"
  attr {
    key: "T"
    value {
      type: DT_FLOAT
    }
  }
  attr {
    key: "_output_shapes"
    value {
      list {
        shape {
        }
      }
    }
  }
}
node {
  name: "Full_Graph/adv_steps/convLayer_3/logits/pre_activations/tag"
  op: "Const"
  attr {
    key: "_output_shapes"
    value {
      list {
        shape {
        }
      }
    }
  }
  attr {
    key: "dtype"
    value {
      type: DT_STRING
    }
  }
  attr {
    key: "value"
    value {
      tensor {
        dtype: DT_STRING
        tensor_shape {
        }
        string_val: "Full_Graph/adv_steps/convLayer_3/logits/pre_activations"
      }
    }
  }
}
node {
  name: "Full_Graph/adv_steps/convLayer_3/logits/pre_activations"
  op: "HistogramSummary"
  input: "Full_Graph/adv_steps/convLayer_3/logits/pre_activations/tag"
  input: "Full_Graph/adv_steps/Relu_3"
  attr {
    key: "T"
    value {
      type: DT_FLOAT
    }
  }
  attr {
    key: "_output_shapes"
    value {
      list {
        shape {
        }
      }
    }
  }
}
node {
  name: "Full_Graph/adv_steps/truncated_normal_4/shape"
  op: "Const"
  attr {
    key: "_output_shapes"
    value {
      list {
        shape {
          dim {
            size: 4
          }
        }
      }
    }
  }
  attr {
    key: "dtype"
    value {
      type: DT_INT32
    }
  }
  attr {
    key: "value"
    value {
      tensor {
        dtype: DT_INT32
        tensor_shape {
          dim {
            size: 4
          }
        }
        tensor_content: "\005\000\000\000\005\000\000\000@\000\000\000P\000\000\000"
      }
    }
  }
}
node {
  name: "Full_Graph/adv_steps/truncated_normal_4/mean"
  op: "Const"
  attr {
    key: "_output_shapes"
    value {
      list {
        shape {
        }
      }
    }
  }
  attr {
    key: "dtype"
    value {
      type: DT_FLOAT
    }
  }
  attr {
    key: "value"
    value {
      tensor {
        dtype: DT_FLOAT
        tensor_shape {
        }
        float_val: 0.0
      }
    }
  }
}
node {
  name: "Full_Graph/adv_steps/truncated_normal_4/stddev"
  op: "Const"
  attr {
    key: "_output_shapes"
    value {
      list {
        shape {
        }
      }
    }
  }
  attr {
    key: "dtype"
    value {
      type: DT_FLOAT
    }
  }
  attr {
    key: "value"
    value {
      tensor {
        dtype: DT_FLOAT
        tensor_shape {
        }
        float_val: 0.05000000074505806
      }
    }
  }
}
node {
  name: "Full_Graph/adv_steps/truncated_normal_4/TruncatedNormal"
  op: "TruncatedNormal"
  input: "Full_Graph/adv_steps/truncated_normal_4/shape"
  attr {
    key: "T"
    value {
      type: DT_INT32
    }
  }
  attr {
    key: "_output_shapes"
    value {
      list {
        shape {
          dim {
            size: 5
          }
          dim {
            size: 5
          }
          dim {
            size: 64
          }
          dim {
            size: 80
          }
        }
      }
    }
  }
  attr {
    key: "dtype"
    value {
      type: DT_FLOAT
    }
  }
  attr {
    key: "seed"
    value {
      i: 0
    }
  }
  attr {
    key: "seed2"
    value {
      i: 0
    }
  }
}
node {
  name: "Full_Graph/adv_steps/truncated_normal_4/mul"
  op: "Mul"
  input: "Full_Graph/adv_steps/truncated_normal_4/TruncatedNormal"
  input: "Full_Graph/adv_steps/truncated_normal_4/stddev"
  attr {
    key: "T"
    value {
      type: DT_FLOAT
    }
  }
  attr {
    key: "_output_shapes"
    value {
      list {
        shape {
          dim {
            size: 5
          }
          dim {
            size: 5
          }
          dim {
            size: 64
          }
          dim {
            size: 80
          }
        }
      }
    }
  }
}
node {
  name: "Full_Graph/adv_steps/truncated_normal_4"
  op: "Add"
  input: "Full_Graph/adv_steps/truncated_normal_4/mul"
  input: "Full_Graph/adv_steps/truncated_normal_4/mean"
  attr {
    key: "T"
    value {
      type: DT_FLOAT
    }
  }
  attr {
    key: "_output_shapes"
    value {
      list {
        shape {
          dim {
            size: 5
          }
          dim {
            size: 5
          }
          dim {
            size: 64
          }
          dim {
            size: 80
          }
        }
      }
    }
  }
}
node {
  name: "Full_Graph/adv_steps/weight_4"
  op: "VariableV2"
  attr {
    key: "_output_shapes"
    value {
      list {
        shape {
          dim {
            size: 5
          }
          dim {
            size: 5
          }
          dim {
            size: 64
          }
          dim {
            size: 80
          }
        }
      }
    }
  }
  attr {
    key: "container"
    value {
      s: ""
    }
  }
  attr {
    key: "dtype"
    value {
      type: DT_FLOAT
    }
  }
  attr {
    key: "shape"
    value {
      shape {
        dim {
          size: 5
        }
        dim {
          size: 5
        }
        dim {
          size: 64
        }
        dim {
          size: 80
        }
      }
    }
  }
  attr {
    key: "shared_name"
    value {
      s: ""
    }
  }
}
node {
  name: "Full_Graph/adv_steps/weight_4/Assign"
  op: "Assign"
  input: "Full_Graph/adv_steps/weight_4"
  input: "Full_Graph/adv_steps/truncated_normal_4"
  attr {
    key: "T"
    value {
      type: DT_FLOAT
    }
  }
  attr {
    key: "_class"
    value {
      list {
        s: "loc:@Full_Graph/adv_steps/weight_4"
      }
    }
  }
  attr {
    key: "_output_shapes"
    value {
      list {
        shape {
          dim {
            size: 5
          }
          dim {
            size: 5
          }
          dim {
            size: 64
          }
          dim {
            size: 80
          }
        }
      }
    }
  }
  attr {
    key: "use_locking"
    value {
      b: true
    }
  }
  attr {
    key: "validate_shape"
    value {
      b: true
    }
  }
}
node {
  name: "Full_Graph/adv_steps/weight_4/read"
  op: "Identity"
  input: "Full_Graph/adv_steps/weight_4"
  attr {
    key: "T"
    value {
      type: DT_FLOAT
    }
  }
  attr {
    key: "_class"
    value {
      list {
        s: "loc:@Full_Graph/adv_steps/weight_4"
      }
    }
  }
  attr {
    key: "_output_shapes"
    value {
      list {
        shape {
          dim {
            size: 5
          }
          dim {
            size: 5
          }
          dim {
            size: 64
          }
          dim {
            size: 80
          }
        }
      }
    }
  }
}
node {
  name: "Full_Graph/adv_steps/Const_4"
  op: "Const"
  attr {
    key: "_output_shapes"
    value {
      list {
        shape {
          dim {
            size: 80
          }
        }
      }
    }
  }
  attr {
    key: "dtype"
    value {
      type: DT_FLOAT
    }
  }
  attr {
    key: "value"
    value {
      tensor {
        dtype: DT_FLOAT
        tensor_shape {
          dim {
            size: 80
          }
        }
        float_val: 0.05000000074505806
      }
    }
  }
}
node {
  name: "Full_Graph/adv_steps/bias_4"
  op: "VariableV2"
  attr {
    key: "_output_shapes"
    value {
      list {
        shape {
          dim {
            size: 80
          }
        }
      }
    }
  }
  attr {
    key: "container"
    value {
      s: ""
    }
  }
  attr {
    key: "dtype"
    value {
      type: DT_FLOAT
    }
  }
  attr {
    key: "shape"
    value {
      shape {
        dim {
          size: 80
        }
      }
    }
  }
  attr {
    key: "shared_name"
    value {
      s: ""
    }
  }
}
node {
  name: "Full_Graph/adv_steps/bias_4/Assign"
  op: "Assign"
  input: "Full_Graph/adv_steps/bias_4"
  input: "Full_Graph/adv_steps/Const_4"
  attr {
    key: "T"
    value {
      type: DT_FLOAT
    }
  }
  attr {
    key: "_class"
    value {
      list {
        s: "loc:@Full_Graph/adv_steps/bias_4"
      }
    }
  }
  attr {
    key: "_output_shapes"
    value {
      list {
        shape {
          dim {
            size: 80
          }
        }
      }
    }
  }
  attr {
    key: "use_locking"
    value {
      b: true
    }
  }
  attr {
    key: "validate_shape"
    value {
      b: true
    }
  }
}
node {
  name: "Full_Graph/adv_steps/bias_4/read"
  op: "Identity"
  input: "Full_Graph/adv_steps/bias_4"
  attr {
    key: "T"
    value {
      type: DT_FLOAT
    }
  }
  attr {
    key: "_class"
    value {
      list {
        s: "loc:@Full_Graph/adv_steps/bias_4"
      }
    }
  }
  attr {
    key: "_output_shapes"
    value {
      list {
        shape {
          dim {
            size: 80
          }
        }
      }
    }
  }
}
node {
  name: "Full_Graph/adv_steps/Conv2D_4"
  op: "Conv2D"
  input: "Full_Graph/adv_steps/Relu_3"
  input: "Full_Graph/adv_steps/weight_4/read"
  attr {
    key: "T"
    value {
      type: DT_FLOAT
    }
  }
  attr {
    key: "_output_shapes"
    value {
      list {
        shape {
          dim {
            size: -1
          }
          dim {
            size: 5
          }
          dim {
            size: 13
          }
          dim {
            size: 80
          }
        }
      }
    }
  }
  attr {
    key: "data_format"
    value {
      s: "NHWC"
    }
  }
  attr {
    key: "padding"
    value {
      s: "SAME"
    }
  }
  attr {
    key: "strides"
    value {
      list {
        i: 1
        i: 1
        i: 1
        i: 1
      }
    }
  }
  attr {
    key: "use_cudnn_on_gpu"
    value {
      b: true
    }
  }
}
node {
  name: "Full_Graph/adv_steps/add_4"
  op: "Add"
  input: "Full_Graph/adv_steps/Conv2D_4"
  input: "Full_Graph/adv_steps/bias_4/read"
  attr {
    key: "T"
    value {
      type: DT_FLOAT
    }
  }
  attr {
    key: "_output_shapes"
    value {
      list {
        shape {
          dim {
            size: -1
          }
          dim {
            size: 5
          }
          dim {
            size: 13
          }
          dim {
            size: 80
          }
        }
      }
    }
  }
}
node {
  name: "Full_Graph/adv_steps/MaxPool_4"
  op: "MaxPool"
  input: "Full_Graph/adv_steps/add_4"
  attr {
    key: "T"
    value {
      type: DT_FLOAT
    }
  }
  attr {
    key: "_output_shapes"
    value {
      list {
        shape {
          dim {
            size: -1
          }
          dim {
            size: 3
          }
          dim {
            size: 7
          }
          dim {
            size: 80
          }
        }
      }
    }
  }
  attr {
    key: "data_format"
    value {
      s: "NHWC"
    }
  }
  attr {
    key: "ksize"
    value {
      list {
        i: 1
        i: 2
        i: 2
        i: 1
      }
    }
  }
  attr {
    key: "padding"
    value {
      s: "SAME"
    }
  }
  attr {
    key: "strides"
    value {
      list {
        i: 1
        i: 2
        i: 2
        i: 1
      }
    }
  }
}
node {
  name: "Full_Graph/adv_steps/Relu_4"
  op: "Relu"
  input: "Full_Graph/adv_steps/MaxPool_4"
  attr {
    key: "T"
    value {
      type: DT_FLOAT
    }
  }
  attr {
    key: "_output_shapes"
    value {
      list {
        shape {
          dim {
            size: -1
          }
          dim {
            size: 3
          }
          dim {
            size: 7
          }
          dim {
            size: 80
          }
        }
      }
    }
  }
}
node {
  name: "Full_Graph/adv_steps/convLayer_4/weights/weights/tag"
  op: "Const"
  attr {
    key: "_output_shapes"
    value {
      list {
        shape {
        }
      }
    }
  }
  attr {
    key: "dtype"
    value {
      type: DT_STRING
    }
  }
  attr {
    key: "value"
    value {
      tensor {
        dtype: DT_STRING
        tensor_shape {
        }
        string_val: "Full_Graph/adv_steps/convLayer_4/weights/weights"
      }
    }
  }
}
node {
  name: "Full_Graph/adv_steps/convLayer_4/weights/weights"
  op: "HistogramSummary"
  input: "Full_Graph/adv_steps/convLayer_4/weights/weights/tag"
  input: "Full_Graph/adv_steps/weight_4/read"
  attr {
    key: "T"
    value {
      type: DT_FLOAT
    }
  }
  attr {
    key: "_output_shapes"
    value {
      list {
        shape {
        }
      }
    }
  }
}
node {
  name: "Full_Graph/adv_steps/convLayer_4/biases/biases/tag"
  op: "Const"
  attr {
    key: "_output_shapes"
    value {
      list {
        shape {
        }
      }
    }
  }
  attr {
    key: "dtype"
    value {
      type: DT_STRING
    }
  }
  attr {
    key: "value"
    value {
      tensor {
        dtype: DT_STRING
        tensor_shape {
        }
        string_val: "Full_Graph/adv_steps/convLayer_4/biases/biases"
      }
    }
  }
}
node {
  name: "Full_Graph/adv_steps/convLayer_4/biases/biases"
  op: "HistogramSummary"
  input: "Full_Graph/adv_steps/convLayer_4/biases/biases/tag"
  input: "Full_Graph/adv_steps/bias_4/read"
  attr {
    key: "T"
    value {
      type: DT_FLOAT
    }
  }
  attr {
    key: "_output_shapes"
    value {
      list {
        shape {
        }
      }
    }
  }
}
node {
  name: "Full_Graph/adv_steps/convLayer_4/logits/pre_activations/tag"
  op: "Const"
  attr {
    key: "_output_shapes"
    value {
      list {
        shape {
        }
      }
    }
  }
  attr {
    key: "dtype"
    value {
      type: DT_STRING
    }
  }
  attr {
    key: "value"
    value {
      tensor {
        dtype: DT_STRING
        tensor_shape {
        }
        string_val: "Full_Graph/adv_steps/convLayer_4/logits/pre_activations"
      }
    }
  }
}
node {
  name: "Full_Graph/adv_steps/convLayer_4/logits/pre_activations"
  op: "HistogramSummary"
  input: "Full_Graph/adv_steps/convLayer_4/logits/pre_activations/tag"
  input: "Full_Graph/adv_steps/Relu_4"
  attr {
    key: "T"
    value {
      type: DT_FLOAT
    }
  }
  attr {
    key: "_output_shapes"
    value {
      list {
        shape {
        }
      }
    }
  }
}
node {
  name: "Full_Graph/adv_steps/Reshape/shape"
  op: "Const"
  attr {
    key: "_output_shapes"
    value {
      list {
        shape {
          dim {
            size: 2
          }
        }
      }
    }
  }
  attr {
    key: "dtype"
    value {
      type: DT_INT32
    }
  }
  attr {
    key: "value"
    value {
      tensor {
        dtype: DT_INT32
        tensor_shape {
          dim {
            size: 2
          }
        }
        tensor_content: "\377\377\377\377\220\006\000\000"
      }
    }
  }
}
node {
  name: "Full_Graph/adv_steps/Reshape"
  op: "Reshape"
  input: "Full_Graph/adv_steps/Relu_4"
  input: "Full_Graph/adv_steps/Reshape/shape"
  attr {
    key: "T"
    value {
      type: DT_FLOAT
    }
  }
  attr {
    key: "Tshape"
    value {
      type: DT_INT32
    }
  }
  attr {
    key: "_output_shapes"
    value {
      list {
        shape {
          dim {
            size: -1
          }
          dim {
            size: 1680
          }
        }
      }
    }
  }
}
node {
  name: "Full_Graph/adv_steps/truncated_normal_5/shape"
  op: "Const"
  attr {
    key: "_output_shapes"
    value {
      list {
        shape {
          dim {
            size: 2
          }
        }
      }
    }
  }
  attr {
    key: "dtype"
    value {
      type: DT_INT32
    }
  }
  attr {
    key: "value"
    value {
      tensor {
        dtype: DT_INT32
        tensor_shape {
          dim {
            size: 2
          }
        }
        tensor_content: "\220\006\000\000\200\000\000\000"
      }
    }
  }
}
node {
  name: "Full_Graph/adv_steps/truncated_normal_5/mean"
  op: "Const"
  attr {
    key: "_output_shapes"
    value {
      list {
        shape {
        }
      }
    }
  }
  attr {
    key: "dtype"
    value {
      type: DT_FLOAT
    }
  }
  attr {
    key: "value"
    value {
      tensor {
        dtype: DT_FLOAT
        tensor_shape {
        }
        float_val: 0.0
      }
    }
  }
}
node {
  name: "Full_Graph/adv_steps/truncated_normal_5/stddev"
  op: "Const"
  attr {
    key: "_output_shapes"
    value {
      list {
        shape {
        }
      }
    }
  }
  attr {
    key: "dtype"
    value {
      type: DT_FLOAT
    }
  }
  attr {
    key: "value"
    value {
      tensor {
        dtype: DT_FLOAT
        tensor_shape {
        }
        float_val: 0.05000000074505806
      }
    }
  }
}
node {
  name: "Full_Graph/adv_steps/truncated_normal_5/TruncatedNormal"
  op: "TruncatedNormal"
  input: "Full_Graph/adv_steps/truncated_normal_5/shape"
  attr {
    key: "T"
    value {
      type: DT_INT32
    }
  }
  attr {
    key: "_output_shapes"
    value {
      list {
        shape {
          dim {
            size: 1680
          }
          dim {
            size: 128
          }
        }
      }
    }
  }
  attr {
    key: "dtype"
    value {
      type: DT_FLOAT
    }
  }
  attr {
    key: "seed"
    value {
      i: 0
    }
  }
  attr {
    key: "seed2"
    value {
      i: 0
    }
  }
}
node {
  name: "Full_Graph/adv_steps/truncated_normal_5/mul"
  op: "Mul"
  input: "Full_Graph/adv_steps/truncated_normal_5/TruncatedNormal"
  input: "Full_Graph/adv_steps/truncated_normal_5/stddev"
  attr {
    key: "T"
    value {
      type: DT_FLOAT
    }
  }
  attr {
    key: "_output_shapes"
    value {
      list {
        shape {
          dim {
            size: 1680
          }
          dim {
            size: 128
          }
        }
      }
    }
  }
}
node {
  name: "Full_Graph/adv_steps/truncated_normal_5"
  op: "Add"
  input: "Full_Graph/adv_steps/truncated_normal_5/mul"
  input: "Full_Graph/adv_steps/truncated_normal_5/mean"
  attr {
    key: "T"
    value {
      type: DT_FLOAT
    }
  }
  attr {
    key: "_output_shapes"
    value {
      list {
        shape {
          dim {
            size: 1680
          }
          dim {
            size: 128
          }
        }
      }
    }
  }
}
node {
  name: "Full_Graph/adv_steps/weight_5"
  op: "VariableV2"
  attr {
    key: "_output_shapes"
    value {
      list {
        shape {
          dim {
            size: 1680
          }
          dim {
            size: 128
          }
        }
      }
    }
  }
  attr {
    key: "container"
    value {
      s: ""
    }
  }
  attr {
    key: "dtype"
    value {
      type: DT_FLOAT
    }
  }
  attr {
    key: "shape"
    value {
      shape {
        dim {
          size: 1680
        }
        dim {
          size: 128
        }
      }
    }
  }
  attr {
    key: "shared_name"
    value {
      s: ""
    }
  }
}
node {
  name: "Full_Graph/adv_steps/weight_5/Assign"
  op: "Assign"
  input: "Full_Graph/adv_steps/weight_5"
  input: "Full_Graph/adv_steps/truncated_normal_5"
  attr {
    key: "T"
    value {
      type: DT_FLOAT
    }
  }
  attr {
    key: "_class"
    value {
      list {
        s: "loc:@Full_Graph/adv_steps/weight_5"
      }
    }
  }
  attr {
    key: "_output_shapes"
    value {
      list {
        shape {
          dim {
            size: 1680
          }
          dim {
            size: 128
          }
        }
      }
    }
  }
  attr {
    key: "use_locking"
    value {
      b: true
    }
  }
  attr {
    key: "validate_shape"
    value {
      b: true
    }
  }
}
node {
  name: "Full_Graph/adv_steps/weight_5/read"
  op: "Identity"
  input: "Full_Graph/adv_steps/weight_5"
  attr {
    key: "T"
    value {
      type: DT_FLOAT
    }
  }
  attr {
    key: "_class"
    value {
      list {
        s: "loc:@Full_Graph/adv_steps/weight_5"
      }
    }
  }
  attr {
    key: "_output_shapes"
    value {
      list {
        shape {
          dim {
            size: 1680
          }
          dim {
            size: 128
          }
        }
      }
    }
  }
}
node {
  name: "Full_Graph/adv_steps/Const_5"
  op: "Const"
  attr {
    key: "_output_shapes"
    value {
      list {
        shape {
          dim {
            size: 128
          }
        }
      }
    }
  }
  attr {
    key: "dtype"
    value {
      type: DT_FLOAT
    }
  }
  attr {
    key: "value"
    value {
      tensor {
        dtype: DT_FLOAT
        tensor_shape {
          dim {
            size: 128
          }
        }
        float_val: 0.05000000074505806
      }
    }
  }
}
node {
  name: "Full_Graph/adv_steps/bias_5"
  op: "VariableV2"
  attr {
    key: "_output_shapes"
    value {
      list {
        shape {
          dim {
            size: 128
          }
        }
      }
    }
  }
  attr {
    key: "container"
    value {
      s: ""
    }
  }
  attr {
    key: "dtype"
    value {
      type: DT_FLOAT
    }
  }
  attr {
    key: "shape"
    value {
      shape {
        dim {
          size: 128
        }
      }
    }
  }
  attr {
    key: "shared_name"
    value {
      s: ""
    }
  }
}
node {
  name: "Full_Graph/adv_steps/bias_5/Assign"
  op: "Assign"
  input: "Full_Graph/adv_steps/bias_5"
  input: "Full_Graph/adv_steps/Const_5"
  attr {
    key: "T"
    value {
      type: DT_FLOAT
    }
  }
  attr {
    key: "_class"
    value {
      list {
        s: "loc:@Full_Graph/adv_steps/bias_5"
      }
    }
  }
  attr {
    key: "_output_shapes"
    value {
      list {
        shape {
          dim {
            size: 128
          }
        }
      }
    }
  }
  attr {
    key: "use_locking"
    value {
      b: true
    }
  }
  attr {
    key: "validate_shape"
    value {
      b: true
    }
  }
}
node {
  name: "Full_Graph/adv_steps/bias_5/read"
  op: "Identity"
  input: "Full_Graph/adv_steps/bias_5"
  attr {
    key: "T"
    value {
      type: DT_FLOAT
    }
  }
  attr {
    key: "_class"
    value {
      list {
        s: "loc:@Full_Graph/adv_steps/bias_5"
      }
    }
  }
  attr {
    key: "_output_shapes"
    value {
      list {
        shape {
          dim {
            size: 128
          }
        }
      }
    }
  }
}
node {
  name: "Full_Graph/adv_steps/MatMul"
  op: "MatMul"
  input: "Full_Graph/adv_steps/Reshape"
  input: "Full_Graph/adv_steps/weight_5/read"
  attr {
    key: "T"
    value {
      type: DT_FLOAT
    }
  }
  attr {
    key: "_output_shapes"
    value {
      list {
        shape {
          dim {
            size: -1
          }
          dim {
            size: 128
          }
        }
      }
    }
  }
  attr {
    key: "transpose_a"
    value {
      b: false
    }
  }
  attr {
    key: "transpose_b"
    value {
      b: false
    }
  }
}
node {
  name: "Full_Graph/adv_steps/add_5"
  op: "Add"
  input: "Full_Graph/adv_steps/MatMul"
  input: "Full_Graph/adv_steps/bias_5/read"
  attr {
    key: "T"
    value {
      type: DT_FLOAT
    }
  }
  attr {
    key: "_output_shapes"
    value {
      list {
        shape {
          dim {
            size: -1
          }
          dim {
            size: 128
          }
        }
      }
    }
  }
}
node {
  name: "Full_Graph/adv_steps/Relu_5"
  op: "Relu"
  input: "Full_Graph/adv_steps/add_5"
  attr {
    key: "T"
    value {
      type: DT_FLOAT
    }
  }
  attr {
    key: "_output_shapes"
    value {
      list {
        shape {
          dim {
            size: -1
          }
          dim {
            size: 128
          }
        }
      }
    }
  }
}
node {
  name: "Full_Graph/adv_steps/dropout/Shape"
  op: "Shape"
  input: "Full_Graph/adv_steps/Relu_5"
  attr {
    key: "T"
    value {
      type: DT_FLOAT
    }
  }
  attr {
    key: "_output_shapes"
    value {
      list {
        shape {
          dim {
            size: 2
          }
        }
      }
    }
  }
  attr {
    key: "out_type"
    value {
      type: DT_INT32
    }
  }
}
node {
  name: "Full_Graph/adv_steps/dropout/random_uniform/min"
  op: "Const"
  attr {
    key: "_output_shapes"
    value {
      list {
        shape {
        }
      }
    }
  }
  attr {
    key: "dtype"
    value {
      type: DT_FLOAT
    }
  }
  attr {
    key: "value"
    value {
      tensor {
        dtype: DT_FLOAT
        tensor_shape {
        }
        float_val: 0.0
      }
    }
  }
}
node {
  name: "Full_Graph/adv_steps/dropout/random_uniform/max"
  op: "Const"
  attr {
    key: "_output_shapes"
    value {
      list {
        shape {
        }
      }
    }
  }
  attr {
    key: "dtype"
    value {
      type: DT_FLOAT
    }
  }
  attr {
    key: "value"
    value {
      tensor {
        dtype: DT_FLOAT
        tensor_shape {
        }
        float_val: 1.0
      }
    }
  }
}
node {
  name: "Full_Graph/adv_steps/dropout/random_uniform/RandomUniform"
  op: "RandomUniform"
  input: "Full_Graph/adv_steps/dropout/Shape"
  attr {
    key: "T"
    value {
      type: DT_INT32
    }
  }
  attr {
    key: "_output_shapes"
    value {
      list {
        shape {
          dim {
            size: -1
          }
          dim {
            size: 128
          }
        }
      }
    }
  }
  attr {
    key: "dtype"
    value {
      type: DT_FLOAT
    }
  }
  attr {
    key: "seed"
    value {
      i: 0
    }
  }
  attr {
    key: "seed2"
    value {
      i: 0
    }
  }
}
node {
  name: "Full_Graph/adv_steps/dropout/random_uniform/sub"
  op: "Sub"
  input: "Full_Graph/adv_steps/dropout/random_uniform/max"
  input: "Full_Graph/adv_steps/dropout/random_uniform/min"
  attr {
    key: "T"
    value {
      type: DT_FLOAT
    }
  }
  attr {
    key: "_output_shapes"
    value {
      list {
        shape {
        }
      }
    }
  }
}
node {
  name: "Full_Graph/adv_steps/dropout/random_uniform/mul"
  op: "Mul"
  input: "Full_Graph/adv_steps/dropout/random_uniform/RandomUniform"
  input: "Full_Graph/adv_steps/dropout/random_uniform/sub"
  attr {
    key: "T"
    value {
      type: DT_FLOAT
    }
  }
  attr {
    key: "_output_shapes"
    value {
      list {
        shape {
          dim {
            size: -1
          }
          dim {
            size: 128
          }
        }
      }
    }
  }
}
node {
  name: "Full_Graph/adv_steps/dropout/random_uniform"
  op: "Add"
  input: "Full_Graph/adv_steps/dropout/random_uniform/mul"
  input: "Full_Graph/adv_steps/dropout/random_uniform/min"
  attr {
    key: "T"
    value {
      type: DT_FLOAT
    }
  }
  attr {
    key: "_output_shapes"
    value {
      list {
        shape {
          dim {
            size: -1
          }
          dim {
            size: 128
          }
        }
      }
    }
  }
}
node {
  name: "Full_Graph/adv_steps/dropout/add"
  op: "Add"
  input: "Full_Graph/keep_prob/Placeholder"
  input: "Full_Graph/adv_steps/dropout/random_uniform"
  attr {
    key: "T"
    value {
      type: DT_FLOAT
    }
  }
  attr {
    key: "_output_shapes"
    value {
      list {
        shape {
          unknown_rank: true
        }
      }
    }
  }
}
node {
  name: "Full_Graph/adv_steps/dropout/Floor"
  op: "Floor"
  input: "Full_Graph/adv_steps/dropout/add"
  attr {
    key: "T"
    value {
      type: DT_FLOAT
    }
  }
  attr {
    key: "_output_shapes"
    value {
      list {
        shape {
          unknown_rank: true
        }
      }
    }
  }
}
node {
  name: "Full_Graph/adv_steps/dropout/div"
  op: "RealDiv"
  input: "Full_Graph/adv_steps/Relu_5"
  input: "Full_Graph/keep_prob/Placeholder"
  attr {
    key: "T"
    value {
      type: DT_FLOAT
    }
  }
  attr {
    key: "_output_shapes"
    value {
      list {
        shape {
          unknown_rank: true
        }
      }
    }
  }
}
node {
  name: "Full_Graph/adv_steps/dropout/mul"
  op: "Mul"
  input: "Full_Graph/adv_steps/dropout/div"
  input: "Full_Graph/adv_steps/dropout/Floor"
  attr {
    key: "T"
    value {
      type: DT_FLOAT
    }
  }
  attr {
    key: "_output_shapes"
    value {
      list {
        shape {
          dim {
            size: -1
          }
          dim {
            size: 128
          }
        }
      }
    }
  }
}
node {
  name: "Full_Graph/adv_steps/fullyLayer_0/weights/weights/tag"
  op: "Const"
  attr {
    key: "_output_shapes"
    value {
      list {
        shape {
        }
      }
    }
  }
  attr {
    key: "dtype"
    value {
      type: DT_STRING
    }
  }
  attr {
    key: "value"
    value {
      tensor {
        dtype: DT_STRING
        tensor_shape {
        }
        string_val: "Full_Graph/adv_steps/fullyLayer_0/weights/weights"
      }
    }
  }
}
node {
  name: "Full_Graph/adv_steps/fullyLayer_0/weights/weights"
  op: "HistogramSummary"
  input: "Full_Graph/adv_steps/fullyLayer_0/weights/weights/tag"
  input: "Full_Graph/adv_steps/weight_5/read"
  attr {
    key: "T"
    value {
      type: DT_FLOAT
    }
  }
  attr {
    key: "_output_shapes"
    value {
      list {
        shape {
        }
      }
    }
  }
}
node {
  name: "Full_Graph/adv_steps/fullyLayer_0/biases/biases/tag"
  op: "Const"
  attr {
    key: "_output_shapes"
    value {
      list {
        shape {
        }
      }
    }
  }
  attr {
    key: "dtype"
    value {
      type: DT_STRING
    }
  }
  attr {
    key: "value"
    value {
      tensor {
        dtype: DT_STRING
        tensor_shape {
        }
        string_val: "Full_Graph/adv_steps/fullyLayer_0/biases/biases"
      }
    }
  }
}
node {
  name: "Full_Graph/adv_steps/fullyLayer_0/biases/biases"
  op: "HistogramSummary"
  input: "Full_Graph/adv_steps/fullyLayer_0/biases/biases/tag"
  input: "Full_Graph/adv_steps/bias_5/read"
  attr {
    key: "T"
    value {
      type: DT_FLOAT
    }
  }
  attr {
    key: "_output_shapes"
    value {
      list {
        shape {
        }
      }
    }
  }
}
node {
  name: "Full_Graph/adv_steps/fullyLayer_0/logits/pre_activations/tag"
  op: "Const"
  attr {
    key: "_output_shapes"
    value {
      list {
        shape {
        }
      }
    }
  }
  attr {
    key: "dtype"
    value {
      type: DT_STRING
    }
  }
  attr {
    key: "value"
    value {
      tensor {
        dtype: DT_STRING
        tensor_shape {
        }
        string_val: "Full_Graph/adv_steps/fullyLayer_0/logits/pre_activations"
      }
    }
  }
}
node {
  name: "Full_Graph/adv_steps/fullyLayer_0/logits/pre_activations"
  op: "HistogramSummary"
  input: "Full_Graph/adv_steps/fullyLayer_0/logits/pre_activations/tag"
  input: "Full_Graph/adv_steps/dropout/mul"
  attr {
    key: "T"
    value {
      type: DT_FLOAT
    }
  }
  attr {
    key: "_output_shapes"
    value {
      list {
        shape {
        }
      }
    }
  }
}
node {
  name: "Full_Graph/adv_steps/truncated_normal_6/shape"
  op: "Const"
  attr {
    key: "_output_shapes"
    value {
      list {
        shape {
          dim {
            size: 2
          }
        }
      }
    }
  }
  attr {
    key: "dtype"
    value {
      type: DT_INT32
    }
  }
  attr {
    key: "value"
    value {
      tensor {
        dtype: DT_INT32
        tensor_shape {
          dim {
            size: 2
          }
        }
        tensor_content: "\200\000\000\000@\000\000\000"
      }
    }
  }
}
node {
  name: "Full_Graph/adv_steps/truncated_normal_6/mean"
  op: "Const"
  attr {
    key: "_output_shapes"
    value {
      list {
        shape {
        }
      }
    }
  }
  attr {
    key: "dtype"
    value {
      type: DT_FLOAT
    }
  }
  attr {
    key: "value"
    value {
      tensor {
        dtype: DT_FLOAT
        tensor_shape {
        }
        float_val: 0.0
      }
    }
  }
}
node {
  name: "Full_Graph/adv_steps/truncated_normal_6/stddev"
  op: "Const"
  attr {
    key: "_output_shapes"
    value {
      list {
        shape {
        }
      }
    }
  }
  attr {
    key: "dtype"
    value {
      type: DT_FLOAT
    }
  }
  attr {
    key: "value"
    value {
      tensor {
        dtype: DT_FLOAT
        tensor_shape {
        }
        float_val: 0.05000000074505806
      }
    }
  }
}
node {
  name: "Full_Graph/adv_steps/truncated_normal_6/TruncatedNormal"
  op: "TruncatedNormal"
  input: "Full_Graph/adv_steps/truncated_normal_6/shape"
  attr {
    key: "T"
    value {
      type: DT_INT32
    }
  }
  attr {
    key: "_output_shapes"
    value {
      list {
        shape {
          dim {
            size: 128
          }
          dim {
            size: 64
          }
        }
      }
    }
  }
  attr {
    key: "dtype"
    value {
      type: DT_FLOAT
    }
  }
  attr {
    key: "seed"
    value {
      i: 0
    }
  }
  attr {
    key: "seed2"
    value {
      i: 0
    }
  }
}
node {
  name: "Full_Graph/adv_steps/truncated_normal_6/mul"
  op: "Mul"
  input: "Full_Graph/adv_steps/truncated_normal_6/TruncatedNormal"
  input: "Full_Graph/adv_steps/truncated_normal_6/stddev"
  attr {
    key: "T"
    value {
      type: DT_FLOAT
    }
  }
  attr {
    key: "_output_shapes"
    value {
      list {
        shape {
          dim {
            size: 128
          }
          dim {
            size: 64
          }
        }
      }
    }
  }
}
node {
  name: "Full_Graph/adv_steps/truncated_normal_6"
  op: "Add"
  input: "Full_Graph/adv_steps/truncated_normal_6/mul"
  input: "Full_Graph/adv_steps/truncated_normal_6/mean"
  attr {
    key: "T"
    value {
      type: DT_FLOAT
    }
  }
  attr {
    key: "_output_shapes"
    value {
      list {
        shape {
          dim {
            size: 128
          }
          dim {
            size: 64
          }
        }
      }
    }
  }
}
node {
  name: "Full_Graph/adv_steps/weight_6"
  op: "VariableV2"
  attr {
    key: "_output_shapes"
    value {
      list {
        shape {
          dim {
            size: 128
          }
          dim {
            size: 64
          }
        }
      }
    }
  }
  attr {
    key: "container"
    value {
      s: ""
    }
  }
  attr {
    key: "dtype"
    value {
      type: DT_FLOAT
    }
  }
  attr {
    key: "shape"
    value {
      shape {
        dim {
          size: 128
        }
        dim {
          size: 64
        }
      }
    }
  }
  attr {
    key: "shared_name"
    value {
      s: ""
    }
  }
}
node {
  name: "Full_Graph/adv_steps/weight_6/Assign"
  op: "Assign"
  input: "Full_Graph/adv_steps/weight_6"
  input: "Full_Graph/adv_steps/truncated_normal_6"
  attr {
    key: "T"
    value {
      type: DT_FLOAT
    }
  }
  attr {
    key: "_class"
    value {
      list {
        s: "loc:@Full_Graph/adv_steps/weight_6"
      }
    }
  }
  attr {
    key: "_output_shapes"
    value {
      list {
        shape {
          dim {
            size: 128
          }
          dim {
            size: 64
          }
        }
      }
    }
  }
  attr {
    key: "use_locking"
    value {
      b: true
    }
  }
  attr {
    key: "validate_shape"
    value {
      b: true
    }
  }
}
node {
  name: "Full_Graph/adv_steps/weight_6/read"
  op: "Identity"
  input: "Full_Graph/adv_steps/weight_6"
  attr {
    key: "T"
    value {
      type: DT_FLOAT
    }
  }
  attr {
    key: "_class"
    value {
      list {
        s: "loc:@Full_Graph/adv_steps/weight_6"
      }
    }
  }
  attr {
    key: "_output_shapes"
    value {
      list {
        shape {
          dim {
            size: 128
          }
          dim {
            size: 64
          }
        }
      }
    }
  }
}
node {
  name: "Full_Graph/adv_steps/Const_6"
  op: "Const"
  attr {
    key: "_output_shapes"
    value {
      list {
        shape {
          dim {
            size: 64
          }
        }
      }
    }
  }
  attr {
    key: "dtype"
    value {
      type: DT_FLOAT
    }
  }
  attr {
    key: "value"
    value {
      tensor {
        dtype: DT_FLOAT
        tensor_shape {
          dim {
            size: 64
          }
        }
        float_val: 0.05000000074505806
      }
    }
  }
}
node {
  name: "Full_Graph/adv_steps/bias_6"
  op: "VariableV2"
  attr {
    key: "_output_shapes"
    value {
      list {
        shape {
          dim {
            size: 64
          }
        }
      }
    }
  }
  attr {
    key: "container"
    value {
      s: ""
    }
  }
  attr {
    key: "dtype"
    value {
      type: DT_FLOAT
    }
  }
  attr {
    key: "shape"
    value {
      shape {
        dim {
          size: 64
        }
      }
    }
  }
  attr {
    key: "shared_name"
    value {
      s: ""
    }
  }
}
node {
  name: "Full_Graph/adv_steps/bias_6/Assign"
  op: "Assign"
  input: "Full_Graph/adv_steps/bias_6"
  input: "Full_Graph/adv_steps/Const_6"
  attr {
    key: "T"
    value {
      type: DT_FLOAT
    }
  }
  attr {
    key: "_class"
    value {
      list {
        s: "loc:@Full_Graph/adv_steps/bias_6"
      }
    }
  }
  attr {
    key: "_output_shapes"
    value {
      list {
        shape {
          dim {
            size: 64
          }
        }
      }
    }
  }
  attr {
    key: "use_locking"
    value {
      b: true
    }
  }
  attr {
    key: "validate_shape"
    value {
      b: true
    }
  }
}
node {
  name: "Full_Graph/adv_steps/bias_6/read"
  op: "Identity"
  input: "Full_Graph/adv_steps/bias_6"
  attr {
    key: "T"
    value {
      type: DT_FLOAT
    }
  }
  attr {
    key: "_class"
    value {
      list {
        s: "loc:@Full_Graph/adv_steps/bias_6"
      }
    }
  }
  attr {
    key: "_output_shapes"
    value {
      list {
        shape {
          dim {
            size: 64
          }
        }
      }
    }
  }
}
node {
  name: "Full_Graph/adv_steps/MatMul_1"
  op: "MatMul"
  input: "Full_Graph/adv_steps/dropout/mul"
  input: "Full_Graph/adv_steps/weight_6/read"
  attr {
    key: "T"
    value {
      type: DT_FLOAT
    }
  }
  attr {
    key: "_output_shapes"
    value {
      list {
        shape {
          dim {
            size: -1
          }
          dim {
            size: 64
          }
        }
      }
    }
  }
  attr {
    key: "transpose_a"
    value {
      b: false
    }
  }
  attr {
    key: "transpose_b"
    value {
      b: false
    }
  }
}
node {
  name: "Full_Graph/adv_steps/add_6"
  op: "Add"
  input: "Full_Graph/adv_steps/MatMul_1"
  input: "Full_Graph/adv_steps/bias_6/read"
  attr {
    key: "T"
    value {
      type: DT_FLOAT
    }
  }
  attr {
    key: "_output_shapes"
    value {
      list {
        shape {
          dim {
            size: -1
          }
          dim {
            size: 64
          }
        }
      }
    }
  }
}
node {
  name: "Full_Graph/adv_steps/Relu_6"
  op: "Relu"
  input: "Full_Graph/adv_steps/add_6"
  attr {
    key: "T"
    value {
      type: DT_FLOAT
    }
  }
  attr {
    key: "_output_shapes"
    value {
      list {
        shape {
          dim {
            size: -1
          }
          dim {
            size: 64
          }
        }
      }
    }
  }
}
node {
  name: "Full_Graph/adv_steps/dropout_1/Shape"
  op: "Shape"
  input: "Full_Graph/adv_steps/Relu_6"
  attr {
    key: "T"
    value {
      type: DT_FLOAT
    }
  }
  attr {
    key: "_output_shapes"
    value {
      list {
        shape {
          dim {
            size: 2
          }
        }
      }
    }
  }
  attr {
    key: "out_type"
    value {
      type: DT_INT32
    }
  }
}
node {
  name: "Full_Graph/adv_steps/dropout_1/random_uniform/min"
  op: "Const"
  attr {
    key: "_output_shapes"
    value {
      list {
        shape {
        }
      }
    }
  }
  attr {
    key: "dtype"
    value {
      type: DT_FLOAT
    }
  }
  attr {
    key: "value"
    value {
      tensor {
        dtype: DT_FLOAT
        tensor_shape {
        }
        float_val: 0.0
      }
    }
  }
}
node {
  name: "Full_Graph/adv_steps/dropout_1/random_uniform/max"
  op: "Const"
  attr {
    key: "_output_shapes"
    value {
      list {
        shape {
        }
      }
    }
  }
  attr {
    key: "dtype"
    value {
      type: DT_FLOAT
    }
  }
  attr {
    key: "value"
    value {
      tensor {
        dtype: DT_FLOAT
        tensor_shape {
        }
        float_val: 1.0
      }
    }
  }
}
node {
  name: "Full_Graph/adv_steps/dropout_1/random_uniform/RandomUniform"
  op: "RandomUniform"
  input: "Full_Graph/adv_steps/dropout_1/Shape"
  attr {
    key: "T"
    value {
      type: DT_INT32
    }
  }
  attr {
    key: "_output_shapes"
    value {
      list {
        shape {
          dim {
            size: -1
          }
          dim {
            size: 64
          }
        }
      }
    }
  }
  attr {
    key: "dtype"
    value {
      type: DT_FLOAT
    }
  }
  attr {
    key: "seed"
    value {
      i: 0
    }
  }
  attr {
    key: "seed2"
    value {
      i: 0
    }
  }
}
node {
  name: "Full_Graph/adv_steps/dropout_1/random_uniform/sub"
  op: "Sub"
  input: "Full_Graph/adv_steps/dropout_1/random_uniform/max"
  input: "Full_Graph/adv_steps/dropout_1/random_uniform/min"
  attr {
    key: "T"
    value {
      type: DT_FLOAT
    }
  }
  attr {
    key: "_output_shapes"
    value {
      list {
        shape {
        }
      }
    }
  }
}
node {
  name: "Full_Graph/adv_steps/dropout_1/random_uniform/mul"
  op: "Mul"
  input: "Full_Graph/adv_steps/dropout_1/random_uniform/RandomUniform"
  input: "Full_Graph/adv_steps/dropout_1/random_uniform/sub"
  attr {
    key: "T"
    value {
      type: DT_FLOAT
    }
  }
  attr {
    key: "_output_shapes"
    value {
      list {
        shape {
          dim {
            size: -1
          }
          dim {
            size: 64
          }
        }
      }
    }
  }
}
node {
  name: "Full_Graph/adv_steps/dropout_1/random_uniform"
  op: "Add"
  input: "Full_Graph/adv_steps/dropout_1/random_uniform/mul"
  input: "Full_Graph/adv_steps/dropout_1/random_uniform/min"
  attr {
    key: "T"
    value {
      type: DT_FLOAT
    }
  }
  attr {
    key: "_output_shapes"
    value {
      list {
        shape {
          dim {
            size: -1
          }
          dim {
            size: 64
          }
        }
      }
    }
  }
}
node {
  name: "Full_Graph/adv_steps/dropout_1/add"
  op: "Add"
  input: "Full_Graph/keep_prob/Placeholder"
  input: "Full_Graph/adv_steps/dropout_1/random_uniform"
  attr {
    key: "T"
    value {
      type: DT_FLOAT
    }
  }
  attr {
    key: "_output_shapes"
    value {
      list {
        shape {
          unknown_rank: true
        }
      }
    }
  }
}
node {
  name: "Full_Graph/adv_steps/dropout_1/Floor"
  op: "Floor"
  input: "Full_Graph/adv_steps/dropout_1/add"
  attr {
    key: "T"
    value {
      type: DT_FLOAT
    }
  }
  attr {
    key: "_output_shapes"
    value {
      list {
        shape {
          unknown_rank: true
        }
      }
    }
  }
}
node {
  name: "Full_Graph/adv_steps/dropout_1/div"
  op: "RealDiv"
  input: "Full_Graph/adv_steps/Relu_6"
  input: "Full_Graph/keep_prob/Placeholder"
  attr {
    key: "T"
    value {
      type: DT_FLOAT
    }
  }
  attr {
    key: "_output_shapes"
    value {
      list {
        shape {
          unknown_rank: true
        }
      }
    }
  }
}
node {
  name: "Full_Graph/adv_steps/dropout_1/mul"
  op: "Mul"
  input: "Full_Graph/adv_steps/dropout_1/div"
  input: "Full_Graph/adv_steps/dropout_1/Floor"
  attr {
    key: "T"
    value {
      type: DT_FLOAT
    }
  }
  attr {
    key: "_output_shapes"
    value {
      list {
        shape {
          dim {
            size: -1
          }
          dim {
            size: 64
          }
        }
      }
    }
  }
}
node {
  name: "Full_Graph/adv_steps/fullyLayer_1/weights/weights/tag"
  op: "Const"
  attr {
    key: "_output_shapes"
    value {
      list {
        shape {
        }
      }
    }
  }
  attr {
    key: "dtype"
    value {
      type: DT_STRING
    }
  }
  attr {
    key: "value"
    value {
      tensor {
        dtype: DT_STRING
        tensor_shape {
        }
        string_val: "Full_Graph/adv_steps/fullyLayer_1/weights/weights"
      }
    }
  }
}
node {
  name: "Full_Graph/adv_steps/fullyLayer_1/weights/weights"
  op: "HistogramSummary"
  input: "Full_Graph/adv_steps/fullyLayer_1/weights/weights/tag"
  input: "Full_Graph/adv_steps/weight_6/read"
  attr {
    key: "T"
    value {
      type: DT_FLOAT
    }
  }
  attr {
    key: "_output_shapes"
    value {
      list {
        shape {
        }
      }
    }
  }
}
node {
  name: "Full_Graph/adv_steps/fullyLayer_1/biases/biases/tag"
  op: "Const"
  attr {
    key: "_output_shapes"
    value {
      list {
        shape {
        }
      }
    }
  }
  attr {
    key: "dtype"
    value {
      type: DT_STRING
    }
  }
  attr {
    key: "value"
    value {
      tensor {
        dtype: DT_STRING
        tensor_shape {
        }
        string_val: "Full_Graph/adv_steps/fullyLayer_1/biases/biases"
      }
    }
  }
}
node {
  name: "Full_Graph/adv_steps/fullyLayer_1/biases/biases"
  op: "HistogramSummary"
  input: "Full_Graph/adv_steps/fullyLayer_1/biases/biases/tag"
  input: "Full_Graph/adv_steps/bias_6/read"
  attr {
    key: "T"
    value {
      type: DT_FLOAT
    }
  }
  attr {
    key: "_output_shapes"
    value {
      list {
        shape {
        }
      }
    }
  }
}
node {
  name: "Full_Graph/adv_steps/fullyLayer_1/logits/pre_activations/tag"
  op: "Const"
  attr {
    key: "_output_shapes"
    value {
      list {
        shape {
        }
      }
    }
  }
  attr {
    key: "dtype"
    value {
      type: DT_STRING
    }
  }
  attr {
    key: "value"
    value {
      tensor {
        dtype: DT_STRING
        tensor_shape {
        }
        string_val: "Full_Graph/adv_steps/fullyLayer_1/logits/pre_activations"
      }
    }
  }
}
node {
  name: "Full_Graph/adv_steps/fullyLayer_1/logits/pre_activations"
  op: "HistogramSummary"
  input: "Full_Graph/adv_steps/fullyLayer_1/logits/pre_activations/tag"
  input: "Full_Graph/adv_steps/dropout_1/mul"
  attr {
    key: "T"
    value {
      type: DT_FLOAT
    }
  }
  attr {
    key: "_output_shapes"
    value {
      list {
        shape {
        }
      }
    }
  }
}
node {
  name: "Full_Graph/adv_steps/truncated_normal_7/shape"
  op: "Const"
  attr {
    key: "_output_shapes"
    value {
      list {
        shape {
          dim {
            size: 2
          }
        }
      }
    }
  }
  attr {
    key: "dtype"
    value {
      type: DT_INT32
    }
  }
  attr {
    key: "value"
    value {
      tensor {
        dtype: DT_INT32
        tensor_shape {
          dim {
            size: 2
          }
        }
        tensor_content: "@\000\000\000*\000\000\000"
      }
    }
  }
}
node {
  name: "Full_Graph/adv_steps/truncated_normal_7/mean"
  op: "Const"
  attr {
    key: "_output_shapes"
    value {
      list {
        shape {
        }
      }
    }
  }
  attr {
    key: "dtype"
    value {
      type: DT_FLOAT
    }
  }
  attr {
    key: "value"
    value {
      tensor {
        dtype: DT_FLOAT
        tensor_shape {
        }
        float_val: 0.0
      }
    }
  }
}
node {
  name: "Full_Graph/adv_steps/truncated_normal_7/stddev"
  op: "Const"
  attr {
    key: "_output_shapes"
    value {
      list {
        shape {
        }
      }
    }
  }
  attr {
    key: "dtype"
    value {
      type: DT_FLOAT
    }
  }
  attr {
    key: "value"
    value {
      tensor {
        dtype: DT_FLOAT
        tensor_shape {
        }
        float_val: 0.05000000074505806
      }
    }
  }
}
node {
  name: "Full_Graph/adv_steps/truncated_normal_7/TruncatedNormal"
  op: "TruncatedNormal"
  input: "Full_Graph/adv_steps/truncated_normal_7/shape"
  attr {
    key: "T"
    value {
      type: DT_INT32
    }
  }
  attr {
    key: "_output_shapes"
    value {
      list {
        shape {
          dim {
            size: 64
          }
          dim {
            size: 42
          }
        }
      }
    }
  }
  attr {
    key: "dtype"
    value {
      type: DT_FLOAT
    }
  }
  attr {
    key: "seed"
    value {
      i: 0
    }
  }
  attr {
    key: "seed2"
    value {
      i: 0
    }
  }
}
node {
  name: "Full_Graph/adv_steps/truncated_normal_7/mul"
  op: "Mul"
  input: "Full_Graph/adv_steps/truncated_normal_7/TruncatedNormal"
  input: "Full_Graph/adv_steps/truncated_normal_7/stddev"
  attr {
    key: "T"
    value {
      type: DT_FLOAT
    }
  }
  attr {
    key: "_output_shapes"
    value {
      list {
        shape {
          dim {
            size: 64
          }
          dim {
            size: 42
          }
        }
      }
    }
  }
}
node {
  name: "Full_Graph/adv_steps/truncated_normal_7"
  op: "Add"
  input: "Full_Graph/adv_steps/truncated_normal_7/mul"
  input: "Full_Graph/adv_steps/truncated_normal_7/mean"
  attr {
    key: "T"
    value {
      type: DT_FLOAT
    }
  }
  attr {
    key: "_output_shapes"
    value {
      list {
        shape {
          dim {
            size: 64
          }
          dim {
            size: 42
          }
        }
      }
    }
  }
}
node {
  name: "Full_Graph/adv_steps/weight_7"
  op: "VariableV2"
  attr {
    key: "_output_shapes"
    value {
      list {
        shape {
          dim {
            size: 64
          }
          dim {
            size: 42
          }
        }
      }
    }
  }
  attr {
    key: "container"
    value {
      s: ""
    }
  }
  attr {
    key: "dtype"
    value {
      type: DT_FLOAT
    }
  }
  attr {
    key: "shape"
    value {
      shape {
        dim {
          size: 64
        }
        dim {
          size: 42
        }
      }
    }
  }
  attr {
    key: "shared_name"
    value {
      s: ""
    }
  }
}
node {
  name: "Full_Graph/adv_steps/weight_7/Assign"
  op: "Assign"
  input: "Full_Graph/adv_steps/weight_7"
  input: "Full_Graph/adv_steps/truncated_normal_7"
  attr {
    key: "T"
    value {
      type: DT_FLOAT
    }
  }
  attr {
    key: "_class"
    value {
      list {
        s: "loc:@Full_Graph/adv_steps/weight_7"
      }
    }
  }
  attr {
    key: "_output_shapes"
    value {
      list {
        shape {
          dim {
            size: 64
          }
          dim {
            size: 42
          }
        }
      }
    }
  }
  attr {
    key: "use_locking"
    value {
      b: true
    }
  }
  attr {
    key: "validate_shape"
    value {
      b: true
    }
  }
}
node {
  name: "Full_Graph/adv_steps/weight_7/read"
  op: "Identity"
  input: "Full_Graph/adv_steps/weight_7"
  attr {
    key: "T"
    value {
      type: DT_FLOAT
    }
  }
  attr {
    key: "_class"
    value {
      list {
        s: "loc:@Full_Graph/adv_steps/weight_7"
      }
    }
  }
  attr {
    key: "_output_shapes"
    value {
      list {
        shape {
          dim {
            size: 64
          }
          dim {
            size: 42
          }
        }
      }
    }
  }
}
node {
  name: "Full_Graph/adv_steps/Const_7"
  op: "Const"
  attr {
    key: "_output_shapes"
    value {
      list {
        shape {
          dim {
            size: 42
          }
        }
      }
    }
  }
  attr {
    key: "dtype"
    value {
      type: DT_FLOAT
    }
  }
  attr {
    key: "value"
    value {
      tensor {
        dtype: DT_FLOAT
        tensor_shape {
          dim {
            size: 42
          }
        }
        float_val: 0.05000000074505806
      }
    }
  }
}
node {
  name: "Full_Graph/adv_steps/bias_7"
  op: "VariableV2"
  attr {
    key: "_output_shapes"
    value {
      list {
        shape {
          dim {
            size: 42
          }
        }
      }
    }
  }
  attr {
    key: "container"
    value {
      s: ""
    }
  }
  attr {
    key: "dtype"
    value {
      type: DT_FLOAT
    }
  }
  attr {
    key: "shape"
    value {
      shape {
        dim {
          size: 42
        }
      }
    }
  }
  attr {
    key: "shared_name"
    value {
      s: ""
    }
  }
}
node {
  name: "Full_Graph/adv_steps/bias_7/Assign"
  op: "Assign"
  input: "Full_Graph/adv_steps/bias_7"
  input: "Full_Graph/adv_steps/Const_7"
  attr {
    key: "T"
    value {
      type: DT_FLOAT
    }
  }
  attr {
    key: "_class"
    value {
      list {
        s: "loc:@Full_Graph/adv_steps/bias_7"
      }
    }
  }
  attr {
    key: "_output_shapes"
    value {
      list {
        shape {
          dim {
            size: 42
          }
        }
      }
    }
  }
  attr {
    key: "use_locking"
    value {
      b: true
    }
  }
  attr {
    key: "validate_shape"
    value {
      b: true
    }
  }
}
node {
  name: "Full_Graph/adv_steps/bias_7/read"
  op: "Identity"
  input: "Full_Graph/adv_steps/bias_7"
  attr {
    key: "T"
    value {
      type: DT_FLOAT
    }
  }
  attr {
    key: "_class"
    value {
      list {
        s: "loc:@Full_Graph/adv_steps/bias_7"
      }
    }
  }
  attr {
    key: "_output_shapes"
    value {
      list {
        shape {
          dim {
            size: 42
          }
        }
      }
    }
  }
}
node {
  name: "Full_Graph/adv_steps/MatMul_2"
  op: "MatMul"
  input: "Full_Graph/adv_steps/dropout_1/mul"
  input: "Full_Graph/adv_steps/weight_7/read"
  attr {
    key: "T"
    value {
      type: DT_FLOAT
    }
  }
  attr {
    key: "_output_shapes"
    value {
      list {
        shape {
          dim {
            size: -1
          }
          dim {
            size: 42
          }
        }
      }
    }
  }
  attr {
    key: "transpose_a"
    value {
      b: false
    }
  }
  attr {
    key: "transpose_b"
    value {
      b: false
    }
  }
}
node {
  name: "Full_Graph/adv_steps/add_7"
  op: "Add"
  input: "Full_Graph/adv_steps/MatMul_2"
  input: "Full_Graph/adv_steps/bias_7/read"
  attr {
    key: "T"
    value {
      type: DT_FLOAT
    }
  }
  attr {
    key: "_output_shapes"
    value {
      list {
        shape {
          dim {
            size: -1
          }
          dim {
            size: 42
          }
        }
      }
    }
  }
}
node {
  name: "Full_Graph/adv_steps/Relu_7"
  op: "Relu"
  input: "Full_Graph/adv_steps/add_7"
  attr {
    key: "T"
    value {
      type: DT_FLOAT
    }
  }
  attr {
    key: "_output_shapes"
    value {
      list {
        shape {
          dim {
            size: -1
          }
          dim {
            size: 42
          }
        }
      }
    }
  }
}
node {
  name: "Full_Graph/adv_steps/dropout_2/Shape"
  op: "Shape"
  input: "Full_Graph/adv_steps/Relu_7"
  attr {
    key: "T"
    value {
      type: DT_FLOAT
    }
  }
  attr {
    key: "_output_shapes"
    value {
      list {
        shape {
          dim {
            size: 2
          }
        }
      }
    }
  }
  attr {
    key: "out_type"
    value {
      type: DT_INT32
    }
  }
}
node {
  name: "Full_Graph/adv_steps/dropout_2/random_uniform/min"
  op: "Const"
  attr {
    key: "_output_shapes"
    value {
      list {
        shape {
        }
      }
    }
  }
  attr {
    key: "dtype"
    value {
      type: DT_FLOAT
    }
  }
  attr {
    key: "value"
    value {
      tensor {
        dtype: DT_FLOAT
        tensor_shape {
        }
        float_val: 0.0
      }
    }
  }
}
node {
  name: "Full_Graph/adv_steps/dropout_2/random_uniform/max"
  op: "Const"
  attr {
    key: "_output_shapes"
    value {
      list {
        shape {
        }
      }
    }
  }
  attr {
    key: "dtype"
    value {
      type: DT_FLOAT
    }
  }
  attr {
    key: "value"
    value {
      tensor {
        dtype: DT_FLOAT
        tensor_shape {
        }
        float_val: 1.0
      }
    }
  }
}
node {
  name: "Full_Graph/adv_steps/dropout_2/random_uniform/RandomUniform"
  op: "RandomUniform"
  input: "Full_Graph/adv_steps/dropout_2/Shape"
  attr {
    key: "T"
    value {
      type: DT_INT32
    }
  }
  attr {
    key: "_output_shapes"
    value {
      list {
        shape {
          dim {
            size: -1
          }
          dim {
            size: 42
          }
        }
      }
    }
  }
  attr {
    key: "dtype"
    value {
      type: DT_FLOAT
    }
  }
  attr {
    key: "seed"
    value {
      i: 0
    }
  }
  attr {
    key: "seed2"
    value {
      i: 0
    }
  }
}
node {
  name: "Full_Graph/adv_steps/dropout_2/random_uniform/sub"
  op: "Sub"
  input: "Full_Graph/adv_steps/dropout_2/random_uniform/max"
  input: "Full_Graph/adv_steps/dropout_2/random_uniform/min"
  attr {
    key: "T"
    value {
      type: DT_FLOAT
    }
  }
  attr {
    key: "_output_shapes"
    value {
      list {
        shape {
        }
      }
    }
  }
}
node {
  name: "Full_Graph/adv_steps/dropout_2/random_uniform/mul"
  op: "Mul"
  input: "Full_Graph/adv_steps/dropout_2/random_uniform/RandomUniform"
  input: "Full_Graph/adv_steps/dropout_2/random_uniform/sub"
  attr {
    key: "T"
    value {
      type: DT_FLOAT
    }
  }
  attr {
    key: "_output_shapes"
    value {
      list {
        shape {
          dim {
            size: -1
          }
          dim {
            size: 42
          }
        }
      }
    }
  }
}
node {
  name: "Full_Graph/adv_steps/dropout_2/random_uniform"
  op: "Add"
  input: "Full_Graph/adv_steps/dropout_2/random_uniform/mul"
  input: "Full_Graph/adv_steps/dropout_2/random_uniform/min"
  attr {
    key: "T"
    value {
      type: DT_FLOAT
    }
  }
  attr {
    key: "_output_shapes"
    value {
      list {
        shape {
          dim {
            size: -1
          }
          dim {
            size: 42
          }
        }
      }
    }
  }
}
node {
  name: "Full_Graph/adv_steps/dropout_2/add"
  op: "Add"
  input: "Full_Graph/keep_prob/Placeholder"
  input: "Full_Graph/adv_steps/dropout_2/random_uniform"
  attr {
    key: "T"
    value {
      type: DT_FLOAT
    }
  }
  attr {
    key: "_output_shapes"
    value {
      list {
        shape {
          unknown_rank: true
        }
      }
    }
  }
}
node {
  name: "Full_Graph/adv_steps/dropout_2/Floor"
  op: "Floor"
  input: "Full_Graph/adv_steps/dropout_2/add"
  attr {
    key: "T"
    value {
      type: DT_FLOAT
    }
  }
  attr {
    key: "_output_shapes"
    value {
      list {
        shape {
          unknown_rank: true
        }
      }
    }
  }
}
node {
  name: "Full_Graph/adv_steps/dropout_2/div"
  op: "RealDiv"
  input: "Full_Graph/adv_steps/Relu_7"
  input: "Full_Graph/keep_prob/Placeholder"
  attr {
    key: "T"
    value {
      type: DT_FLOAT
    }
  }
  attr {
    key: "_output_shapes"
    value {
      list {
        shape {
          unknown_rank: true
        }
      }
    }
  }
}
node {
  name: "Full_Graph/adv_steps/dropout_2/mul"
  op: "Mul"
  input: "Full_Graph/adv_steps/dropout_2/div"
  input: "Full_Graph/adv_steps/dropout_2/Floor"
  attr {
    key: "T"
    value {
      type: DT_FLOAT
    }
  }
  attr {
    key: "_output_shapes"
    value {
      list {
        shape {
          dim {
            size: -1
          }
          dim {
            size: 42
          }
        }
      }
    }
  }
}
node {
  name: "Full_Graph/adv_steps/fullyLayer_2/weights/weights/tag"
  op: "Const"
  attr {
    key: "_output_shapes"
    value {
      list {
        shape {
        }
      }
    }
  }
  attr {
    key: "dtype"
    value {
      type: DT_STRING
    }
  }
  attr {
    key: "value"
    value {
      tensor {
        dtype: DT_STRING
        tensor_shape {
        }
        string_val: "Full_Graph/adv_steps/fullyLayer_2/weights/weights"
      }
    }
  }
}
node {
  name: "Full_Graph/adv_steps/fullyLayer_2/weights/weights"
  op: "HistogramSummary"
  input: "Full_Graph/adv_steps/fullyLayer_2/weights/weights/tag"
  input: "Full_Graph/adv_steps/weight_7/read"
  attr {
    key: "T"
    value {
      type: DT_FLOAT
    }
  }
  attr {
    key: "_output_shapes"
    value {
      list {
        shape {
        }
      }
    }
  }
}
node {
  name: "Full_Graph/adv_steps/fullyLayer_2/biases/biases/tag"
  op: "Const"
  attr {
    key: "_output_shapes"
    value {
      list {
        shape {
        }
      }
    }
  }
  attr {
    key: "dtype"
    value {
      type: DT_STRING
    }
  }
  attr {
    key: "value"
    value {
      tensor {
        dtype: DT_STRING
        tensor_shape {
        }
        string_val: "Full_Graph/adv_steps/fullyLayer_2/biases/biases"
      }
    }
  }
}
node {
  name: "Full_Graph/adv_steps/fullyLayer_2/biases/biases"
  op: "HistogramSummary"
  input: "Full_Graph/adv_steps/fullyLayer_2/biases/biases/tag"
  input: "Full_Graph/adv_steps/bias_7/read"
  attr {
    key: "T"
    value {
      type: DT_FLOAT
    }
  }
  attr {
    key: "_output_shapes"
    value {
      list {
        shape {
        }
      }
    }
  }
}
node {
  name: "Full_Graph/adv_steps/fullyLayer_2/logits/pre_activations/tag"
  op: "Const"
  attr {
    key: "_output_shapes"
    value {
      list {
        shape {
        }
      }
    }
  }
  attr {
    key: "dtype"
    value {
      type: DT_STRING
    }
  }
  attr {
    key: "value"
    value {
      tensor {
        dtype: DT_STRING
        tensor_shape {
        }
        string_val: "Full_Graph/adv_steps/fullyLayer_2/logits/pre_activations"
      }
    }
  }
}
node {
  name: "Full_Graph/adv_steps/fullyLayer_2/logits/pre_activations"
  op: "HistogramSummary"
  input: "Full_Graph/adv_steps/fullyLayer_2/logits/pre_activations/tag"
  input: "Full_Graph/adv_steps/dropout_2/mul"
  attr {
    key: "T"
    value {
      type: DT_FLOAT
    }
  }
  attr {
    key: "_output_shapes"
    value {
      list {
        shape {
        }
      }
    }
  }
}
node {
  name: "Full_Graph/adv_steps/truncated_normal_8/shape"
  op: "Const"
  attr {
    key: "_output_shapes"
    value {
      list {
        shape {
          dim {
            size: 2
          }
        }
      }
    }
  }
  attr {
    key: "dtype"
    value {
      type: DT_INT32
    }
  }
  attr {
    key: "value"
    value {
      tensor {
        dtype: DT_INT32
        tensor_shape {
          dim {
            size: 2
          }
        }
        tensor_content: "*\000\000\000 \000\000\000"
      }
    }
  }
}
node {
  name: "Full_Graph/adv_steps/truncated_normal_8/mean"
  op: "Const"
  attr {
    key: "_output_shapes"
    value {
      list {
        shape {
        }
      }
    }
  }
  attr {
    key: "dtype"
    value {
      type: DT_FLOAT
    }
  }
  attr {
    key: "value"
    value {
      tensor {
        dtype: DT_FLOAT
        tensor_shape {
        }
        float_val: 0.0
      }
    }
  }
}
node {
  name: "Full_Graph/adv_steps/truncated_normal_8/stddev"
  op: "Const"
  attr {
    key: "_output_shapes"
    value {
      list {
        shape {
        }
      }
    }
  }
  attr {
    key: "dtype"
    value {
      type: DT_FLOAT
    }
  }
  attr {
    key: "value"
    value {
      tensor {
        dtype: DT_FLOAT
        tensor_shape {
        }
        float_val: 0.05000000074505806
      }
    }
  }
}
node {
  name: "Full_Graph/adv_steps/truncated_normal_8/TruncatedNormal"
  op: "TruncatedNormal"
  input: "Full_Graph/adv_steps/truncated_normal_8/shape"
  attr {
    key: "T"
    value {
      type: DT_INT32
    }
  }
  attr {
    key: "_output_shapes"
    value {
      list {
        shape {
          dim {
            size: 42
          }
          dim {
            size: 32
          }
        }
      }
    }
  }
  attr {
    key: "dtype"
    value {
      type: DT_FLOAT
    }
  }
  attr {
    key: "seed"
    value {
      i: 0
    }
  }
  attr {
    key: "seed2"
    value {
      i: 0
    }
  }
}
node {
  name: "Full_Graph/adv_steps/truncated_normal_8/mul"
  op: "Mul"
  input: "Full_Graph/adv_steps/truncated_normal_8/TruncatedNormal"
  input: "Full_Graph/adv_steps/truncated_normal_8/stddev"
  attr {
    key: "T"
    value {
      type: DT_FLOAT
    }
  }
  attr {
    key: "_output_shapes"
    value {
      list {
        shape {
          dim {
            size: 42
          }
          dim {
            size: 32
          }
        }
      }
    }
  }
}
node {
  name: "Full_Graph/adv_steps/truncated_normal_8"
  op: "Add"
  input: "Full_Graph/adv_steps/truncated_normal_8/mul"
  input: "Full_Graph/adv_steps/truncated_normal_8/mean"
  attr {
    key: "T"
    value {
      type: DT_FLOAT
    }
  }
  attr {
    key: "_output_shapes"
    value {
      list {
        shape {
          dim {
            size: 42
          }
          dim {
            size: 32
          }
        }
      }
    }
  }
}
node {
  name: "Full_Graph/adv_steps/weight_8"
  op: "VariableV2"
  attr {
    key: "_output_shapes"
    value {
      list {
        shape {
          dim {
            size: 42
          }
          dim {
            size: 32
          }
        }
      }
    }
  }
  attr {
    key: "container"
    value {
      s: ""
    }
  }
  attr {
    key: "dtype"
    value {
      type: DT_FLOAT
    }
  }
  attr {
    key: "shape"
    value {
      shape {
        dim {
          size: 42
        }
        dim {
          size: 32
        }
      }
    }
  }
  attr {
    key: "shared_name"
    value {
      s: ""
    }
  }
}
node {
  name: "Full_Graph/adv_steps/weight_8/Assign"
  op: "Assign"
  input: "Full_Graph/adv_steps/weight_8"
  input: "Full_Graph/adv_steps/truncated_normal_8"
  attr {
    key: "T"
    value {
      type: DT_FLOAT
    }
  }
  attr {
    key: "_class"
    value {
      list {
        s: "loc:@Full_Graph/adv_steps/weight_8"
      }
    }
  }
  attr {
    key: "_output_shapes"
    value {
      list {
        shape {
          dim {
            size: 42
          }
          dim {
            size: 32
          }
        }
      }
    }
  }
  attr {
    key: "use_locking"
    value {
      b: true
    }
  }
  attr {
    key: "validate_shape"
    value {
      b: true
    }
  }
}
node {
  name: "Full_Graph/adv_steps/weight_8/read"
  op: "Identity"
  input: "Full_Graph/adv_steps/weight_8"
  attr {
    key: "T"
    value {
      type: DT_FLOAT
    }
  }
  attr {
    key: "_class"
    value {
      list {
        s: "loc:@Full_Graph/adv_steps/weight_8"
      }
    }
  }
  attr {
    key: "_output_shapes"
    value {
      list {
        shape {
          dim {
            size: 42
          }
          dim {
            size: 32
          }
        }
      }
    }
  }
}
node {
  name: "Full_Graph/adv_steps/Const_8"
  op: "Const"
  attr {
    key: "_output_shapes"
    value {
      list {
        shape {
          dim {
            size: 32
          }
        }
      }
    }
  }
  attr {
    key: "dtype"
    value {
      type: DT_FLOAT
    }
  }
  attr {
    key: "value"
    value {
      tensor {
        dtype: DT_FLOAT
        tensor_shape {
          dim {
            size: 32
          }
        }
        float_val: 0.05000000074505806
      }
    }
  }
}
node {
  name: "Full_Graph/adv_steps/bias_8"
  op: "VariableV2"
  attr {
    key: "_output_shapes"
    value {
      list {
        shape {
          dim {
            size: 32
          }
        }
      }
    }
  }
  attr {
    key: "container"
    value {
      s: ""
    }
  }
  attr {
    key: "dtype"
    value {
      type: DT_FLOAT
    }
  }
  attr {
    key: "shape"
    value {
      shape {
        dim {
          size: 32
        }
      }
    }
  }
  attr {
    key: "shared_name"
    value {
      s: ""
    }
  }
}
node {
  name: "Full_Graph/adv_steps/bias_8/Assign"
  op: "Assign"
  input: "Full_Graph/adv_steps/bias_8"
  input: "Full_Graph/adv_steps/Const_8"
  attr {
    key: "T"
    value {
      type: DT_FLOAT
    }
  }
  attr {
    key: "_class"
    value {
      list {
        s: "loc:@Full_Graph/adv_steps/bias_8"
      }
    }
  }
  attr {
    key: "_output_shapes"
    value {
      list {
        shape {
          dim {
            size: 32
          }
        }
      }
    }
  }
  attr {
    key: "use_locking"
    value {
      b: true
    }
  }
  attr {
    key: "validate_shape"
    value {
      b: true
    }
  }
}
node {
  name: "Full_Graph/adv_steps/bias_8/read"
  op: "Identity"
  input: "Full_Graph/adv_steps/bias_8"
  attr {
    key: "T"
    value {
      type: DT_FLOAT
    }
  }
  attr {
    key: "_class"
    value {
      list {
        s: "loc:@Full_Graph/adv_steps/bias_8"
      }
    }
  }
  attr {
    key: "_output_shapes"
    value {
      list {
        shape {
          dim {
            size: 32
          }
        }
      }
    }
  }
}
node {
  name: "Full_Graph/adv_steps/MatMul_3"
  op: "MatMul"
  input: "Full_Graph/adv_steps/dropout_2/mul"
  input: "Full_Graph/adv_steps/weight_8/read"
  attr {
    key: "T"
    value {
      type: DT_FLOAT
    }
  }
  attr {
    key: "_output_shapes"
    value {
      list {
        shape {
          dim {
            size: -1
          }
          dim {
            size: 32
          }
        }
      }
    }
  }
  attr {
    key: "transpose_a"
    value {
      b: false
    }
  }
  attr {
    key: "transpose_b"
    value {
      b: false
    }
  }
}
node {
  name: "Full_Graph/adv_steps/add_8"
  op: "Add"
  input: "Full_Graph/adv_steps/MatMul_3"
  input: "Full_Graph/adv_steps/bias_8/read"
  attr {
    key: "T"
    value {
      type: DT_FLOAT
    }
  }
  attr {
    key: "_output_shapes"
    value {
      list {
        shape {
          dim {
            size: -1
          }
          dim {
            size: 32
          }
        }
      }
    }
  }
}
node {
  name: "Full_Graph/adv_steps/Relu_8"
  op: "Relu"
  input: "Full_Graph/adv_steps/add_8"
  attr {
    key: "T"
    value {
      type: DT_FLOAT
    }
  }
  attr {
    key: "_output_shapes"
    value {
      list {
        shape {
          dim {
            size: -1
          }
          dim {
            size: 32
          }
        }
      }
    }
  }
}
node {
  name: "Full_Graph/adv_steps/dropout_3/Shape"
  op: "Shape"
  input: "Full_Graph/adv_steps/Relu_8"
  attr {
    key: "T"
    value {
      type: DT_FLOAT
    }
  }
  attr {
    key: "_output_shapes"
    value {
      list {
        shape {
          dim {
            size: 2
          }
        }
      }
    }
  }
  attr {
    key: "out_type"
    value {
      type: DT_INT32
    }
  }
}
node {
  name: "Full_Graph/adv_steps/dropout_3/random_uniform/min"
  op: "Const"
  attr {
    key: "_output_shapes"
    value {
      list {
        shape {
        }
      }
    }
  }
  attr {
    key: "dtype"
    value {
      type: DT_FLOAT
    }
  }
  attr {
    key: "value"
    value {
      tensor {
        dtype: DT_FLOAT
        tensor_shape {
        }
        float_val: 0.0
      }
    }
  }
}
node {
  name: "Full_Graph/adv_steps/dropout_3/random_uniform/max"
  op: "Const"
  attr {
    key: "_output_shapes"
    value {
      list {
        shape {
        }
      }
    }
  }
  attr {
    key: "dtype"
    value {
      type: DT_FLOAT
    }
  }
  attr {
    key: "value"
    value {
      tensor {
        dtype: DT_FLOAT
        tensor_shape {
        }
        float_val: 1.0
      }
    }
  }
}
node {
  name: "Full_Graph/adv_steps/dropout_3/random_uniform/RandomUniform"
  op: "RandomUniform"
  input: "Full_Graph/adv_steps/dropout_3/Shape"
  attr {
    key: "T"
    value {
      type: DT_INT32
    }
  }
  attr {
    key: "_output_shapes"
    value {
      list {
        shape {
          dim {
            size: -1
          }
          dim {
            size: 32
          }
        }
      }
    }
  }
  attr {
    key: "dtype"
    value {
      type: DT_FLOAT
    }
  }
  attr {
    key: "seed"
    value {
      i: 0
    }
  }
  attr {
    key: "seed2"
    value {
      i: 0
    }
  }
}
node {
  name: "Full_Graph/adv_steps/dropout_3/random_uniform/sub"
  op: "Sub"
  input: "Full_Graph/adv_steps/dropout_3/random_uniform/max"
  input: "Full_Graph/adv_steps/dropout_3/random_uniform/min"
  attr {
    key: "T"
    value {
      type: DT_FLOAT
    }
  }
  attr {
    key: "_output_shapes"
    value {
      list {
        shape {
        }
      }
    }
  }
}
node {
  name: "Full_Graph/adv_steps/dropout_3/random_uniform/mul"
  op: "Mul"
  input: "Full_Graph/adv_steps/dropout_3/random_uniform/RandomUniform"
  input: "Full_Graph/adv_steps/dropout_3/random_uniform/sub"
  attr {
    key: "T"
    value {
      type: DT_FLOAT
    }
  }
  attr {
    key: "_output_shapes"
    value {
      list {
        shape {
          dim {
            size: -1
          }
          dim {
            size: 32
          }
        }
      }
    }
  }
}
node {
  name: "Full_Graph/adv_steps/dropout_3/random_uniform"
  op: "Add"
  input: "Full_Graph/adv_steps/dropout_3/random_uniform/mul"
  input: "Full_Graph/adv_steps/dropout_3/random_uniform/min"
  attr {
    key: "T"
    value {
      type: DT_FLOAT
    }
  }
  attr {
    key: "_output_shapes"
    value {
      list {
        shape {
          dim {
            size: -1
          }
          dim {
            size: 32
          }
        }
      }
    }
  }
}
node {
  name: "Full_Graph/adv_steps/dropout_3/add"
  op: "Add"
  input: "Full_Graph/keep_prob/Placeholder"
  input: "Full_Graph/adv_steps/dropout_3/random_uniform"
  attr {
    key: "T"
    value {
      type: DT_FLOAT
    }
  }
  attr {
    key: "_output_shapes"
    value {
      list {
        shape {
          unknown_rank: true
        }
      }
    }
  }
}
node {
  name: "Full_Graph/adv_steps/dropout_3/Floor"
  op: "Floor"
  input: "Full_Graph/adv_steps/dropout_3/add"
  attr {
    key: "T"
    value {
      type: DT_FLOAT
    }
  }
  attr {
    key: "_output_shapes"
    value {
      list {
        shape {
          unknown_rank: true
        }
      }
    }
  }
}
node {
  name: "Full_Graph/adv_steps/dropout_3/div"
  op: "RealDiv"
  input: "Full_Graph/adv_steps/Relu_8"
  input: "Full_Graph/keep_prob/Placeholder"
  attr {
    key: "T"
    value {
      type: DT_FLOAT
    }
  }
  attr {
    key: "_output_shapes"
    value {
      list {
        shape {
          unknown_rank: true
        }
      }
    }
  }
}
node {
  name: "Full_Graph/adv_steps/dropout_3/mul"
  op: "Mul"
  input: "Full_Graph/adv_steps/dropout_3/div"
  input: "Full_Graph/adv_steps/dropout_3/Floor"
  attr {
    key: "T"
    value {
      type: DT_FLOAT
    }
  }
  attr {
    key: "_output_shapes"
    value {
      list {
        shape {
          dim {
            size: -1
          }
          dim {
            size: 32
          }
        }
      }
    }
  }
}
node {
  name: "Full_Graph/adv_steps/fullyLayer_3/weights/weights/tag"
  op: "Const"
  attr {
    key: "_output_shapes"
    value {
      list {
        shape {
        }
      }
    }
  }
  attr {
    key: "dtype"
    value {
      type: DT_STRING
    }
  }
  attr {
    key: "value"
    value {
      tensor {
        dtype: DT_STRING
        tensor_shape {
        }
        string_val: "Full_Graph/adv_steps/fullyLayer_3/weights/weights"
      }
    }
  }
}
node {
  name: "Full_Graph/adv_steps/fullyLayer_3/weights/weights"
  op: "HistogramSummary"
  input: "Full_Graph/adv_steps/fullyLayer_3/weights/weights/tag"
  input: "Full_Graph/adv_steps/weight_8/read"
  attr {
    key: "T"
    value {
      type: DT_FLOAT
    }
  }
  attr {
    key: "_output_shapes"
    value {
      list {
        shape {
        }
      }
    }
  }
}
node {
  name: "Full_Graph/adv_steps/fullyLayer_3/biases/biases/tag"
  op: "Const"
  attr {
    key: "_output_shapes"
    value {
      list {
        shape {
        }
      }
    }
  }
  attr {
    key: "dtype"
    value {
      type: DT_STRING
    }
  }
  attr {
    key: "value"
    value {
      tensor {
        dtype: DT_STRING
        tensor_shape {
        }
        string_val: "Full_Graph/adv_steps/fullyLayer_3/biases/biases"
      }
    }
  }
}
node {
  name: "Full_Graph/adv_steps/fullyLayer_3/biases/biases"
  op: "HistogramSummary"
  input: "Full_Graph/adv_steps/fullyLayer_3/biases/biases/tag"
  input: "Full_Graph/adv_steps/bias_8/read"
  attr {
    key: "T"
    value {
      type: DT_FLOAT
    }
  }
  attr {
    key: "_output_shapes"
    value {
      list {
        shape {
        }
      }
    }
  }
}
node {
  name: "Full_Graph/adv_steps/fullyLayer_3/logits/pre_activations/tag"
  op: "Const"
  attr {
    key: "_output_shapes"
    value {
      list {
        shape {
        }
      }
    }
  }
  attr {
    key: "dtype"
    value {
      type: DT_STRING
    }
  }
  attr {
    key: "value"
    value {
      tensor {
        dtype: DT_STRING
        tensor_shape {
        }
        string_val: "Full_Graph/adv_steps/fullyLayer_3/logits/pre_activations"
      }
    }
  }
}
node {
  name: "Full_Graph/adv_steps/fullyLayer_3/logits/pre_activations"
  op: "HistogramSummary"
  input: "Full_Graph/adv_steps/fullyLayer_3/logits/pre_activations/tag"
  input: "Full_Graph/adv_steps/dropout_3/mul"
  attr {
    key: "T"
    value {
      type: DT_FLOAT
    }
  }
  attr {
    key: "_output_shapes"
    value {
      list {
        shape {
        }
      }
    }
  }
}
node {
  name: "Full_Graph/adv_steps/truncated_normal_9/shape"
  op: "Const"
  attr {
    key: "_output_shapes"
    value {
      list {
        shape {
          dim {
            size: 2
          }
        }
      }
    }
  }
  attr {
    key: "dtype"
    value {
      type: DT_INT32
    }
  }
  attr {
    key: "value"
    value {
      tensor {
        dtype: DT_INT32
        tensor_shape {
          dim {
            size: 2
          }
        }
        tensor_content: " \000\000\000\005\000\000\000"
      }
    }
  }
}
node {
  name: "Full_Graph/adv_steps/truncated_normal_9/mean"
  op: "Const"
  attr {
    key: "_output_shapes"
    value {
      list {
        shape {
        }
      }
    }
  }
  attr {
    key: "dtype"
    value {
      type: DT_FLOAT
    }
  }
  attr {
    key: "value"
    value {
      tensor {
        dtype: DT_FLOAT
        tensor_shape {
        }
        float_val: 0.0
      }
    }
  }
}
node {
  name: "Full_Graph/adv_steps/truncated_normal_9/stddev"
  op: "Const"
  attr {
    key: "_output_shapes"
    value {
      list {
        shape {
        }
      }
    }
  }
  attr {
    key: "dtype"
    value {
      type: DT_FLOAT
    }
  }
  attr {
    key: "value"
    value {
      tensor {
        dtype: DT_FLOAT
        tensor_shape {
        }
        float_val: 0.05000000074505806
      }
    }
  }
}
node {
  name: "Full_Graph/adv_steps/truncated_normal_9/TruncatedNormal"
  op: "TruncatedNormal"
  input: "Full_Graph/adv_steps/truncated_normal_9/shape"
  attr {
    key: "T"
    value {
      type: DT_INT32
    }
  }
  attr {
    key: "_output_shapes"
    value {
      list {
        shape {
          dim {
            size: 32
          }
          dim {
            size: 5
          }
        }
      }
    }
  }
  attr {
    key: "dtype"
    value {
      type: DT_FLOAT
    }
  }
  attr {
    key: "seed"
    value {
      i: 0
    }
  }
  attr {
    key: "seed2"
    value {
      i: 0
    }
  }
}
node {
  name: "Full_Graph/adv_steps/truncated_normal_9/mul"
  op: "Mul"
  input: "Full_Graph/adv_steps/truncated_normal_9/TruncatedNormal"
  input: "Full_Graph/adv_steps/truncated_normal_9/stddev"
  attr {
    key: "T"
    value {
      type: DT_FLOAT
    }
  }
  attr {
    key: "_output_shapes"
    value {
      list {
        shape {
          dim {
            size: 32
          }
          dim {
            size: 5
          }
        }
      }
    }
  }
}
node {
  name: "Full_Graph/adv_steps/truncated_normal_9"
  op: "Add"
  input: "Full_Graph/adv_steps/truncated_normal_9/mul"
  input: "Full_Graph/adv_steps/truncated_normal_9/mean"
  attr {
    key: "T"
    value {
      type: DT_FLOAT
    }
  }
  attr {
    key: "_output_shapes"
    value {
      list {
        shape {
          dim {
            size: 32
          }
          dim {
            size: 5
          }
        }
      }
    }
  }
}
node {
  name: "Full_Graph/adv_steps/weight_9"
  op: "VariableV2"
  attr {
    key: "_output_shapes"
    value {
      list {
        shape {
          dim {
            size: 32
          }
          dim {
            size: 5
          }
        }
      }
    }
  }
  attr {
    key: "container"
    value {
      s: ""
    }
  }
  attr {
    key: "dtype"
    value {
      type: DT_FLOAT
    }
  }
  attr {
    key: "shape"
    value {
      shape {
        dim {
          size: 32
        }
        dim {
          size: 5
        }
      }
    }
  }
  attr {
    key: "shared_name"
    value {
      s: ""
    }
  }
}
node {
  name: "Full_Graph/adv_steps/weight_9/Assign"
  op: "Assign"
  input: "Full_Graph/adv_steps/weight_9"
  input: "Full_Graph/adv_steps/truncated_normal_9"
  attr {
    key: "T"
    value {
      type: DT_FLOAT
    }
  }
  attr {
    key: "_class"
    value {
      list {
        s: "loc:@Full_Graph/adv_steps/weight_9"
      }
    }
  }
  attr {
    key: "_output_shapes"
    value {
      list {
        shape {
          dim {
            size: 32
          }
          dim {
            size: 5
          }
        }
      }
    }
  }
  attr {
    key: "use_locking"
    value {
      b: true
    }
  }
  attr {
    key: "validate_shape"
    value {
      b: true
    }
  }
}
node {
  name: "Full_Graph/adv_steps/weight_9/read"
  op: "Identity"
  input: "Full_Graph/adv_steps/weight_9"
  attr {
    key: "T"
    value {
      type: DT_FLOAT
    }
  }
  attr {
    key: "_class"
    value {
      list {
        s: "loc:@Full_Graph/adv_steps/weight_9"
      }
    }
  }
  attr {
    key: "_output_shapes"
    value {
      list {
        shape {
          dim {
            size: 32
          }
          dim {
            size: 5
          }
        }
      }
    }
  }
}
node {
  name: "Full_Graph/adv_steps/Const_9"
  op: "Const"
  attr {
    key: "_output_shapes"
    value {
      list {
        shape {
          dim {
            size: 5
          }
        }
      }
    }
  }
  attr {
    key: "dtype"
    value {
      type: DT_FLOAT
    }
  }
  attr {
    key: "value"
    value {
      tensor {
        dtype: DT_FLOAT
        tensor_shape {
          dim {
            size: 5
          }
        }
        float_val: 0.05000000074505806
      }
    }
  }
}
node {
  name: "Full_Graph/adv_steps/bias_9"
  op: "VariableV2"
  attr {
    key: "_output_shapes"
    value {
      list {
        shape {
          dim {
            size: 5
          }
        }
      }
    }
  }
  attr {
    key: "container"
    value {
      s: ""
    }
  }
  attr {
    key: "dtype"
    value {
      type: DT_FLOAT
    }
  }
  attr {
    key: "shape"
    value {
      shape {
        dim {
          size: 5
        }
      }
    }
  }
  attr {
    key: "shared_name"
    value {
      s: ""
    }
  }
}
node {
  name: "Full_Graph/adv_steps/bias_9/Assign"
  op: "Assign"
  input: "Full_Graph/adv_steps/bias_9"
  input: "Full_Graph/adv_steps/Const_9"
  attr {
    key: "T"
    value {
      type: DT_FLOAT
    }
  }
  attr {
    key: "_class"
    value {
      list {
        s: "loc:@Full_Graph/adv_steps/bias_9"
      }
    }
  }
  attr {
    key: "_output_shapes"
    value {
      list {
        shape {
          dim {
            size: 5
          }
        }
      }
    }
  }
  attr {
    key: "use_locking"
    value {
      b: true
    }
  }
  attr {
    key: "validate_shape"
    value {
      b: true
    }
  }
}
node {
  name: "Full_Graph/adv_steps/bias_9/read"
  op: "Identity"
  input: "Full_Graph/adv_steps/bias_9"
  attr {
    key: "T"
    value {
      type: DT_FLOAT
    }
  }
  attr {
    key: "_class"
    value {
      list {
        s: "loc:@Full_Graph/adv_steps/bias_9"
      }
    }
  }
  attr {
    key: "_output_shapes"
    value {
      list {
        shape {
          dim {
            size: 5
          }
        }
      }
    }
  }
}
node {
  name: "Full_Graph/adv_steps/MatMul_4"
  op: "MatMul"
  input: "Full_Graph/adv_steps/dropout_3/mul"
  input: "Full_Graph/adv_steps/weight_9/read"
  attr {
    key: "T"
    value {
      type: DT_FLOAT
    }
  }
  attr {
    key: "_output_shapes"
    value {
      list {
        shape {
          dim {
            size: -1
          }
          dim {
            size: 5
          }
        }
      }
    }
  }
  attr {
    key: "transpose_a"
    value {
      b: false
    }
  }
  attr {
    key: "transpose_b"
    value {
      b: false
    }
  }
}
node {
  name: "Full_Graph/adv_steps/add_9"
  op: "Add"
  input: "Full_Graph/adv_steps/MatMul_4"
  input: "Full_Graph/adv_steps/bias_9/read"
  attr {
    key: "T"
    value {
      type: DT_FLOAT
    }
  }
  attr {
    key: "_output_shapes"
    value {
      list {
        shape {
          dim {
            size: -1
          }
          dim {
            size: 5
          }
        }
      }
    }
  }
}
node {
  name: "Full_Graph/adv_steps/fullyLayer_4/weights/weights/tag"
  op: "Const"
  attr {
    key: "_output_shapes"
    value {
      list {
        shape {
        }
      }
    }
  }
  attr {
    key: "dtype"
    value {
      type: DT_STRING
    }
  }
  attr {
    key: "value"
    value {
      tensor {
        dtype: DT_STRING
        tensor_shape {
        }
        string_val: "Full_Graph/adv_steps/fullyLayer_4/weights/weights"
      }
    }
  }
}
node {
  name: "Full_Graph/adv_steps/fullyLayer_4/weights/weights"
  op: "HistogramSummary"
  input: "Full_Graph/adv_steps/fullyLayer_4/weights/weights/tag"
  input: "Full_Graph/adv_steps/weight_9/read"
  attr {
    key: "T"
    value {
      type: DT_FLOAT
    }
  }
  attr {
    key: "_output_shapes"
    value {
      list {
        shape {
        }
      }
    }
  }
}
node {
  name: "Full_Graph/adv_steps/fullyLayer_4/biases/biases/tag"
  op: "Const"
  attr {
    key: "_output_shapes"
    value {
      list {
        shape {
        }
      }
    }
  }
  attr {
    key: "dtype"
    value {
      type: DT_STRING
    }
  }
  attr {
    key: "value"
    value {
      tensor {
        dtype: DT_STRING
        tensor_shape {
        }
        string_val: "Full_Graph/adv_steps/fullyLayer_4/biases/biases"
      }
    }
  }
}
node {
  name: "Full_Graph/adv_steps/fullyLayer_4/biases/biases"
  op: "HistogramSummary"
  input: "Full_Graph/adv_steps/fullyLayer_4/biases/biases/tag"
  input: "Full_Graph/adv_steps/bias_9/read"
  attr {
    key: "T"
    value {
      type: DT_FLOAT
    }
  }
  attr {
    key: "_output_shapes"
    value {
      list {
        shape {
        }
      }
    }
  }
}
node {
  name: "Full_Graph/adv_steps/fullyLayer_4/logits/pre_activations/tag"
  op: "Const"
  attr {
    key: "_output_shapes"
    value {
      list {
        shape {
        }
      }
    }
  }
  attr {
    key: "dtype"
    value {
      type: DT_STRING
    }
  }
  attr {
    key: "value"
    value {
      tensor {
        dtype: DT_STRING
        tensor_shape {
        }
        string_val: "Full_Graph/adv_steps/fullyLayer_4/logits/pre_activations"
      }
    }
  }
}
node {
  name: "Full_Graph/adv_steps/fullyLayer_4/logits/pre_activations"
  op: "HistogramSummary"
  input: "Full_Graph/adv_steps/fullyLayer_4/logits/pre_activations/tag"
  input: "Full_Graph/adv_steps/add_9"
  attr {
    key: "T"
    value {
      type: DT_FLOAT
    }
  }
  attr {
    key: "_output_shapes"
    value {
      list {
        shape {
        }
      }
    }
  }
}
node {
  name: "softmax/Final_Output"
  op: "Softmax"
  input: "Full_Graph/adv_steps/add_9"
  attr {
    key: "T"
    value {
      type: DT_FLOAT
    }
  }
  attr {
    key: "_output_shapes"
    value {
      list {
        shape {
          dim {
            size: -1
          }
          dim {
            size: 5
          }
        }
      }
    }
  }
}
node {
  name: "softmax/activations/tag"
  op: "Const"
  attr {
    key: "_output_shapes"
    value {
      list {
        shape {
        }
      }
    }
  }
  attr {
    key: "dtype"
    value {
      type: DT_STRING
    }
  }
  attr {
    key: "value"
    value {
      tensor {
        dtype: DT_STRING
        tensor_shape {
        }
        string_val: "softmax/activations"
      }
    }
  }
}
node {
  name: "softmax/activations"
  op: "HistogramSummary"
  input: "softmax/activations/tag"
  input: "softmax/Final_Output"
  attr {
    key: "T"
    value {
      type: DT_FLOAT
    }
  }
  attr {
    key: "_output_shapes"
    value {
      list {
        shape {
        }
      }
    }
  }
}
node {
  name: "cross_entropy/Rank"
  op: "Const"
  attr {
    key: "_output_shapes"
    value {
      list {
        shape {
        }
      }
    }
  }
  attr {
    key: "dtype"
    value {
      type: DT_INT32
    }
  }
  attr {
    key: "value"
    value {
      tensor {
        dtype: DT_INT32
        tensor_shape {
        }
        int_val: 2
      }
    }
  }
}
node {
  name: "cross_entropy/Shape"
  op: "Shape"
  input: "Full_Graph/adv_steps/add_9"
  attr {
    key: "T"
    value {
      type: DT_FLOAT
    }
  }
  attr {
    key: "_output_shapes"
    value {
      list {
        shape {
          dim {
            size: 2
          }
        }
      }
    }
  }
  attr {
    key: "out_type"
    value {
      type: DT_INT32
    }
  }
}
node {
  name: "cross_entropy/Rank_1"
  op: "Const"
  attr {
    key: "_output_shapes"
    value {
      list {
        shape {
        }
      }
    }
  }
  attr {
    key: "dtype"
    value {
      type: DT_INT32
    }
  }
  attr {
    key: "value"
    value {
      tensor {
        dtype: DT_INT32
        tensor_shape {
        }
        int_val: 2
      }
    }
  }
}
node {
  name: "cross_entropy/Shape_1"
  op: "Shape"
  input: "Full_Graph/adv_steps/add_9"
  attr {
    key: "T"
    value {
      type: DT_FLOAT
    }
  }
  attr {
    key: "_output_shapes"
    value {
      list {
        shape {
          dim {
            size: 2
          }
        }
      }
    }
  }
  attr {
    key: "out_type"
    value {
      type: DT_INT32
    }
  }
}
node {
  name: "cross_entropy/Sub/y"
  op: "Const"
  attr {
    key: "_output_shapes"
    value {
      list {
        shape {
        }
      }
    }
  }
  attr {
    key: "dtype"
    value {
      type: DT_INT32
    }
  }
  attr {
    key: "value"
    value {
      tensor {
        dtype: DT_INT32
        tensor_shape {
        }
        int_val: 1
      }
    }
  }
}
node {
  name: "cross_entropy/Sub"
  op: "Sub"
  input: "cross_entropy/Rank_1"
  input: "cross_entropy/Sub/y"
  attr {
    key: "T"
    value {
      type: DT_INT32
    }
  }
  attr {
    key: "_output_shapes"
    value {
      list {
        shape {
        }
      }
    }
  }
}
node {
  name: "cross_entropy/Slice/begin"
  op: "Pack"
  input: "cross_entropy/Sub"
  attr {
    key: "N"
    value {
      i: 1
    }
  }
  attr {
    key: "T"
    value {
      type: DT_INT32
    }
  }
  attr {
    key: "_output_shapes"
    value {
      list {
        shape {
          dim {
            size: 1
          }
        }
      }
    }
  }
  attr {
    key: "axis"
    value {
      i: 0
    }
  }
}
node {
  name: "cross_entropy/Slice/size"
  op: "Const"
  attr {
    key: "_output_shapes"
    value {
      list {
        shape {
          dim {
            size: 1
          }
        }
      }
    }
  }
  attr {
    key: "dtype"
    value {
      type: DT_INT32
    }
  }
  attr {
    key: "value"
    value {
      tensor {
        dtype: DT_INT32
        tensor_shape {
          dim {
            size: 1
          }
        }
        int_val: 1
      }
    }
  }
}
node {
  name: "cross_entropy/Slice"
  op: "Slice"
  input: "cross_entropy/Shape_1"
  input: "cross_entropy/Slice/begin"
  input: "cross_entropy/Slice/size"
  attr {
    key: "Index"
    value {
      type: DT_INT32
    }
  }
  attr {
    key: "T"
    value {
      type: DT_INT32
    }
  }
  attr {
    key: "_output_shapes"
    value {
      list {
        shape {
          dim {
            size: 1
          }
        }
      }
    }
  }
}
node {
  name: "cross_entropy/concat/values_0"
  op: "Const"
  attr {
    key: "_output_shapes"
    value {
      list {
        shape {
          dim {
            size: 1
          }
        }
      }
    }
  }
  attr {
    key: "dtype"
    value {
      type: DT_INT32
    }
  }
  attr {
    key: "value"
    value {
      tensor {
        dtype: DT_INT32
        tensor_shape {
          dim {
            size: 1
          }
        }
        int_val: -1
      }
    }
  }
}
node {
  name: "cross_entropy/concat/axis"
  op: "Const"
  attr {
    key: "_output_shapes"
    value {
      list {
        shape {
        }
      }
    }
  }
  attr {
    key: "dtype"
    value {
      type: DT_INT32
    }
  }
  attr {
    key: "value"
    value {
      tensor {
        dtype: DT_INT32
        tensor_shape {
        }
        int_val: 0
      }
    }
  }
}
node {
  name: "cross_entropy/concat"
  op: "ConcatV2"
  input: "cross_entropy/concat/values_0"
  input: "cross_entropy/Slice"
  input: "cross_entropy/concat/axis"
  attr {
    key: "N"
    value {
      i: 2
    }
  }
  attr {
    key: "T"
    value {
      type: DT_INT32
    }
  }
  attr {
    key: "Tidx"
    value {
      type: DT_INT32
    }
  }
  attr {
    key: "_output_shapes"
    value {
      list {
        shape {
          dim {
            size: 2
          }
        }
      }
    }
  }
}
node {
  name: "cross_entropy/Reshape"
  op: "Reshape"
  input: "Full_Graph/adv_steps/add_9"
  input: "cross_entropy/concat"
  attr {
    key: "T"
    value {
      type: DT_FLOAT
    }
  }
  attr {
    key: "Tshape"
    value {
      type: DT_INT32
    }
  }
  attr {
    key: "_output_shapes"
    value {
      list {
        shape {
          dim {
            size: -1
          }
          dim {
            size: -1
          }
        }
      }
    }
  }
}
node {
  name: "cross_entropy/Rank_2"
  op: "Const"
  attr {
    key: "_output_shapes"
    value {
      list {
        shape {
        }
      }
    }
  }
  attr {
    key: "dtype"
    value {
      type: DT_INT32
    }
  }
  attr {
    key: "value"
    value {
      tensor {
        dtype: DT_INT32
        tensor_shape {
        }
        int_val: 2
      }
    }
  }
}
node {
  name: "cross_entropy/Shape_2"
  op: "Shape"
  input: "Full_Graph/input/Input_Label"
  attr {
    key: "T"
    value {
      type: DT_FLOAT
    }
  }
  attr {
    key: "_output_shapes"
    value {
      list {
        shape {
          dim {
            size: 2
          }
        }
      }
    }
  }
  attr {
    key: "out_type"
    value {
      type: DT_INT32
    }
  }
}
node {
  name: "cross_entropy/Sub_1/y"
  op: "Const"
  attr {
    key: "_output_shapes"
    value {
      list {
        shape {
        }
      }
…
    key: "dtype"
    value {
      type: DT_FLOAT
    }
  }
}
node {
  name: "report_uninitialized_variables/IsVariableInitialized_130"
  op: "IsVariableInitialized"
  input: "Full_Graph/adv_steps/bias/Adam_5"
  attr {
    key: "_class"
    value {
      list {
        s: "loc:@Full_Graph/adv_steps/bias"
      }
    }
  }
  attr {
    key: "_output_shapes"
    value {
      list {
        shape {
        }
      }
    }
  }
  attr {
    key: "dtype"
    value {
      type: DT_FLOAT
    }
  }
}
node {
  name: "report_uninitialized_variables/IsVariableInitialized_131"
  op: "IsVariableInitialized"
  input: "Full_Graph/adv_steps/weight_1/Adam_4"
  attr {
    key: "_class"
    value {
      list {
        s: "loc:@Full_Graph/adv_steps/weight_1"
      }
    }
  }
  attr {
    key: "_output_shapes"
    value {
      list {
        shape {
        }
      }
    }
  }
  attr {
    key: "dtype"
    value {
      type: DT_FLOAT
    }
  }
}
node {
  name: "report_uninitialized_variables/IsVariableInitialized_132"
  op: "IsVariableInitialized"
  input: "Full_Graph/adv_steps/weight_1/Adam_5"
  attr {
    key: "_class"
    value {
      list {
        s: "loc:@Full_Graph/adv_steps/weight_1"
      }
    }
  }
  attr {
    key: "_output_shapes"
    value {
      list {
        shape {
        }
      }
    }
  }
  attr {
    key: "dtype"
    value {
      type: DT_FLOAT
    }
  }
}
node {
  name: "report_uninitialized_variables/IsVariableInitialized_133"
  op: "IsVariableInitialized"
  input: "Full_Graph/adv_steps/bias_1/Adam_4"
  attr {
    key: "_class"
    value {
      list {
        s: "loc:@Full_Graph/adv_steps/bias_1"
      }
    }
  }
  attr {
    key: "_output_shapes"
    value {
      list {
        shape {
        }
      }
    }
  }
  attr {
    key: "dtype"
    value {
      type: DT_FLOAT
    }
  }
}
node {
  name: "report_uninitialized_variables/IsVariableInitialized_134"
  op: "IsVariableInitialized"
  input: "Full_Graph/adv_steps/bias_1/Adam_5"
  attr {
    key: "_class"
    value {
      list {
        s: "loc:@Full_Graph/adv_steps/bias_1"
      }
    }
  }
  attr {
    key: "_output_shapes"
    value {
      list {
        shape {
        }
      }
    }
  }
  attr {
    key: "dtype"
    value {
      type: DT_FLOAT
    }
  }
}
node {
  name: "report_uninitialized_variables/IsVariableInitialized_135"
  op: "IsVariableInitialized"
  input: "Full_Graph/adv_steps/weight_2/Adam_4"
  attr {
    key: "_class"
    value {
      list {
        s: "loc:@Full_Graph/adv_steps/weight_2"
      }
    }
  }
  attr {
    key: "_output_shapes"
    value {
      list {
        shape {
        }
      }
    }
  }
  attr {
    key: "dtype"
    value {
      type: DT_FLOAT
    }
  }
}
node {
  name: "report_uninitialized_variables/IsVariableInitialized_136"
  op: "IsVariableInitialized"
  input: "Full_Graph/adv_steps/weight_2/Adam_5"
  attr {
    key: "_class"
    value {
      list {
        s: "loc:@Full_Graph/adv_steps/weight_2"
      }
    }
  }
  attr {
    key: "_output_shapes"
    value {
      list {
        shape {
        }
      }
    }
  }
  attr {
    key: "dtype"
    value {
      type: DT_FLOAT
    }
  }
}
node {
  name: "report_uninitialized_variables/IsVariableInitialized_137"
  op: "IsVariableInitialized"
  input: "Full_Graph/adv_steps/bias_2/Adam_4"
  attr {
    key: "_class"
    value {
      list {
        s: "loc:@Full_Graph/adv_steps/bias_2"
      }
    }
  }
  attr {
    key: "_output_shapes"
    value {
      list {
        shape {
        }
      }
    }
  }
  attr {
    key: "dtype"
    value {
      type: DT_FLOAT
    }
  }
}
node {
  name: "report_uninitialized_variables/IsVariableInitialized_138"
  op: "IsVariableInitialized"
  input: "Full_Graph/adv_steps/bias_2/Adam_5"
  attr {
    key: "_class"
    value {
      list {
        s: "loc:@Full_Graph/adv_steps/bias_2"
      }
    }
  }
  attr {
    key: "_output_shapes"
    value {
      list {
        shape {
        }
      }
    }
  }
  attr {
    key: "dtype"
    value {
      type: DT_FLOAT
    }
  }
}
node {
  name: "report_uninitialized_variables/IsVariableInitialized_139"
  op: "IsVariableInitialized"
  input: "Full_Graph/adv_steps/weight_3/Adam_4"
  attr {
    key: "_class"
    value {
      list {
        s: "loc:@Full_Graph/adv_steps/weight_3"
      }
    }
  }
  attr {
    key: "_output_shapes"
    value {
      list {
        shape {
        }
      }
    }
  }
  attr {
    key: "dtype"
    value {
      type: DT_FLOAT
    }
  }
}
node {
  name: "report_uninitialized_variables/IsVariableInitialized_140"
  op: "IsVariableInitialized"
  input: "Full_Graph/adv_steps/weight_3/Adam_5"
  attr {
    key: "_class"
    value {
      list {
        s: "loc:@Full_Graph/adv_steps/weight_3"
      }
    }
  }
  attr {
    key: "_output_shapes"
    value {
      list {
        shape {
        }
      }
    }
  }
  attr {
    key: "dtype"
    value {
      type: DT_FLOAT
    }
  }
}
node {
  name: "report_uninitialized_variables/IsVariableInitialized_141"
  op: "IsVariableInitialized"
  input: "Full_Graph/adv_steps/bias_3/Adam_4"
  attr {
    key: "_class"
    value {
      list {
        s: "loc:@Full_Graph/adv_steps/bias_3"
      }
    }
  }
  attr {
    key: "_output_shapes"
    value {
      list {
        shape {
        }
      }
    }
  }
  attr {
    key: "dtype"
    value {
      type: DT_FLOAT
    }
  }
}
node {
  name: "report_uninitialized_variables/IsVariableInitialized_142"
  op: "IsVariableInitialized"
  input: "Full_Graph/adv_steps/bias_3/Adam_5"
  attr {
    key: "_class"
    value {
      list {
        s: "loc:@Full_Graph/adv_steps/bias_3"
      }
    }
  }
  attr {
    key: "_output_shapes"
    value {
      list {
        shape {
        }
      }
    }
  }
  attr {
    key: "dtype"
    value {
      type: DT_FLOAT
    }
  }
}
node {
  name: "report_uninitialized_variables/IsVariableInitialized_143"
  op: "IsVariableInitialized"
  input: "Full_Graph/adv_steps/weight_4/Adam_4"
  attr {
    key: "_class"
    value {
      list {
        s: "loc:@Full_Graph/adv_steps/weight_4"
      }
    }
  }
  attr {
    key: "_output_shapes"
    value {
      list {
        shape {
        }
      }
    }
  }
  attr {
    key: "dtype"
    value {
      type: DT_FLOAT
    }
  }
}
node {
  name: "report_uninitialized_variables/IsVariableInitialized_144"
  op: "IsVariableInitialized"
  input: "Full_Graph/adv_steps/weight_4/Adam_5"
  attr {
    key: "_class"
    value {
      list {
        s: "loc:@Full_Graph/adv_steps/weight_4"
      }
    }
  }
  attr {
    key: "_output_shapes"
    value {
      list {
        shape {
        }
      }
    }
  }
  attr {
    key: "dtype"
    value {
      type: DT_FLOAT
    }
  }
}
node {
  name: "report_uninitialized_variables/IsVariableInitialized_145"
  op: "IsVariableInitialized"
  input: "Full_Graph/adv_steps/bias_4/Adam_4"
  attr {
    key: "_class"
    value {
      list {
        s: "loc:@Full_Graph/adv_steps/bias_4"
      }
    }
  }
  attr {
    key: "_output_shapes"
    value {
      list {
        shape {
        }
      }
    }
  }
  attr {
    key: "dtype"
    value {
      type: DT_FLOAT
    }
  }
}
node {
  name: "report_uninitialized_variables/IsVariableInitialized_146"
  op: "IsVariableInitialized"
  input: "Full_Graph/adv_steps/bias_4/Adam_5"
  attr {
    key: "_class"
    value {
      list {
        s: "loc:@Full_Graph/adv_steps/bias_4"
      }
    }
  }
  attr {
    key: "_output_shapes"
    value {
      list {
        shape {
        }
      }
    }
  }
  attr {
    key: "dtype"
    value {
      type: DT_FLOAT
    }
  }
}
node {
  name: "report_uninitialized_variables/IsVariableInitialized_147"
  op: "IsVariableInitialized"
  input: "Full_Graph/adv_steps/weight_5/Adam_4"
  attr {
    key: "_class"
    value {
      list {
        s: "loc:@Full_Graph/adv_steps/weight_5"
      }
    }
  }
  attr {
    key: "_output_shapes"
    value {
      list {
        shape {
        }
      }
    }
  }
  attr {
    key: "dtype"
    value {
      type: DT_FLOAT
    }
  }
}
node {
  name: "report_uninitialized_variables/IsVariableInitialized_148"
  op: "IsVariableInitialized"
  input: "Full_Graph/adv_steps/weight_5/Adam_5"
  attr {
    key: "_class"
    value {
      list {
        s: "loc:@Full_Graph/adv_steps/weight_5"
      }
    }
  }
  attr {
    key: "_output_shapes"
    value {
      list {
        shape {
        }
      }
    }
  }
  attr {
    key: "dtype"
    value {
      type: DT_FLOAT
    }
  }
}
node {
  name: "report_uninitialized_variables/IsVariableInitialized_149"
  op: "IsVariableInitialized"
  input: "Full_Graph/adv_steps/bias_5/Adam_4"
  attr {
    key: "_class"
    value {
      list {
        s: "loc:@Full_Graph/adv_steps/bias_5"
      }
    }
  }
  attr {
    key: "_output_shapes"
    value {
      list {
        shape {
        }
      }
    }
  }
  attr {
    key: "dtype"
    value {
      type: DT_FLOAT
    }
  }
}
node {
  name: "report_uninitialized_variables/IsVariableInitialized_150"
  op: "IsVariableInitialized"
  input: "Full_Graph/adv_steps/bias_5/Adam_5"
  attr {
    key: "_class"
    value {
      list {
        s: "loc:@Full_Graph/adv_steps/bias_5"
      }
    }
  }
  attr {
    key: "_output_shapes"
    value {
      list {
        shape {
        }
      }
    }
  }
  attr {
    key: "dtype"
    value {
      type: DT_FLOAT
    }
  }
}
node {
  name: "report_uninitialized_variables/IsVariableInitialized_151"
  op: "IsVariableInitialized"
  input: "Full_Graph/adv_steps/weight_6/Adam_4"
  attr {
    key: "_class"
    value {
      list {
        s: "loc:@Full_Graph/adv_steps/weight_6"
      }
    }
  }
  attr {
    key: "_output_shapes"
    value {
      list {
        shape {
        }
      }
    }
  }
  attr {
    key: "dtype"
    value {
      type: DT_FLOAT
    }
  }
}
node {
  name: "report_uninitialized_variables/IsVariableInitialized_152"
  op: "IsVariableInitialized"
  input: "Full_Graph/adv_steps/weight_6/Adam_5"
  attr {
    key: "_class"
    value {
      list {
        s: "loc:@Full_Graph/adv_steps/weight_6"
      }
    }
  }
  attr {
    key: "_output_shapes"
    value {
      list {
        shape {
        }
      }
    }
  }
  attr {
    key: "dtype"
    value {
      type: DT_FLOAT
    }
  }
}
node {
  name: "report_uninitialized_variables/IsVariableInitialized_153"
  op: "IsVariableInitialized"
  input: "Full_Graph/adv_steps/bias_6/Adam_4"
  attr {
    key: "_class"
    value {
      list {
        s: "loc:@Full_Graph/adv_steps/bias_6"
      }
    }
  }
  attr {
    key: "_output_shapes"
    value {
      list {
        shape {
        }
      }
    }
  }
  attr {
    key: "dtype"
    value {
      type: DT_FLOAT
    }
  }
}
node {
  name: "report_uninitialized_variables/IsVariableInitialized_154"
  op: "IsVariableInitialized"
  input: "Full_Graph/adv_steps/bias_6/Adam_5"
  attr {
    key: "_class"
    value {
      list {
        s: "loc:@Full_Graph/adv_steps/bias_6"
      }
    }
  }
  attr {
    key: "_output_shapes"
    value {
      list {
        shape {
        }
      }
    }
  }
  attr {
    key: "dtype"
    value {
      type: DT_FLOAT
    }
  }
}
node {
  name: "report_uninitialized_variables/IsVariableInitialized_155"
  op: "IsVariableInitialized"
  input: "Full_Graph/adv_steps/weight_7/Adam_4"
  attr {
    key: "_class"
    value {
      list {
        s: "loc:@Full_Graph/adv_steps/weight_7"
      }
    }
  }
  attr {
    key: "_output_shapes"
    value {
      list {
        shape {
        }
      }
    }
  }
  attr {
    key: "dtype"
    value {
      type: DT_FLOAT
    }
  }
}
node {
  name: "report_uninitialized_variables/IsVariableInitialized_156"
  op: "IsVariableInitialized"
  input: "Full_Graph/adv_steps/weight_7/Adam_5"
  attr {
    key: "_class"
    value {
      list {
        s: "loc:@Full_Graph/adv_steps/weight_7"
      }
    }
  }
  attr {
    key: "_output_shapes"
    value {
      list {
        shape {
        }
      }
    }
  }
  attr {
    key: "dtype"
    value {
      type: DT_FLOAT
    }
  }
}
node {
  name: "report_uninitialized_variables/IsVariableInitialized_157"
  op: "IsVariableInitialized"
  input: "Full_Graph/adv_steps/bias_7/Adam_4"
  attr {
    key: "_class"
    value {
      list {
        s: "loc:@Full_Graph/adv_steps/bias_7"
      }
    }
  }
  attr {
    key: "_output_shapes"
    value {
      list {
        shape {
        }
      }
    }
  }
  attr {
    key: "dtype"
    value {
      type: DT_FLOAT
    }
  }
}
node {
  name: "report_uninitialized_variables/IsVariableInitialized_158"
  op: "IsVariableInitialized"
  input: "Full_Graph/adv_steps/bias_7/Adam_5"
  attr {
    key: "_class"
    value {
      list {
        s: "loc:@Full_Graph/adv_steps/bias_7"
      }
    }
  }
  attr {
    key: "_output_shapes"
    value {
      list {
        shape {
        }
      }
    }
  }
  attr {
    key: "dtype"
    value {
      type: DT_FLOAT
    }
  }
}
node {
  name: "report_uninitialized_variables/IsVariableInitialized_159"
  op: "IsVariableInitialized"
  input: "Full_Graph/adv_steps/weight_8/Adam_4"
  attr {
    key: "_class"
    value {
      list {
        s: "loc:@Full_Graph/adv_steps/weight_8"
      }
    }
  }
  attr {
    key: "_output_shapes"
    value {
      list {
        shape {
        }
      }
    }
  }
  attr {
    key: "dtype"
    value {
      type: DT_FLOAT
    }
  }
}
node {
  name: "report_uninitialized_variables/IsVariableInitialized_160"
  op: "IsVariableInitialized"
  input: "Full_Graph/adv_steps/weight_8/Adam_5"
  attr {
    key: "_class"
    value {
      list {
        s: "loc:@Full_Graph/adv_steps/weight_8"
      }
    }
  }
  attr {
    key: "_output_shapes"
    value {
      list {
        shape {
        }
      }
    }
  }
  attr {
    key: "dtype"
    value {
      type: DT_FLOAT
    }
  }
}
node {
  name: "report_uninitialized_variables/IsVariableInitialized_161"
  op: "IsVariableInitialized"
  input: "Full_Graph/adv_steps/bias_8/Adam_4"
  attr {
    key: "_class"
    value {
      list {
        s: "loc:@Full_Graph/adv_steps/bias_8"
      }
    }
  }
  attr {
    key: "_output_shapes"
    value {
      list {
        shape {
        }
      }
    }
  }
  attr {
    key: "dtype"
    value {
      type: DT_FLOAT
    }
  }
}
node {
  name: "report_uninitialized_variables/IsVariableInitialized_162"
  op: "IsVariableInitialized"
  input: "Full_Graph/adv_steps/bias_8/Adam_5"
  attr {
    key: "_class"
    value {
      list {
        s: "loc:@Full_Graph/adv_steps/bias_8"
      }
    }
  }
  attr {
    key: "_output_shapes"
    value {
      list {
        shape {
        }
      }
    }
  }
  attr {
    key: "dtype"
    value {
      type: DT_FLOAT
    }
  }
}
node {
  name: "report_uninitialized_variables/IsVariableInitialized_163"
  op: "IsVariableInitialized"
  input: "Full_Graph/adv_steps/weight_9/Adam_4"
  attr {
    key: "_class"
    value {
      list {
        s: "loc:@Full_Graph/adv_steps/weight_9"
      }
    }
  }
  attr {
    key: "_output_shapes"
    value {
      list {
        shape {
        }
      }
    }
  }
  attr {
    key: "dtype"
    value {
      type: DT_FLOAT
    }
  }
}
node {
  name: "report_uninitialized_variables/IsVariableInitialized_164"
  op: "IsVariableInitialized"
  input: "Full_Graph/adv_steps/weight_9/Adam_5"
  attr {
    key: "_class"
    value {
      list {
        s: "loc:@Full_Graph/adv_steps/weight_9"
      }
    }
  }
  attr {
    key: "_output_shapes"
    value {
      list {
        shape {
        }
      }
    }
  }
  attr {
    key: "dtype"
    value {
      type: DT_FLOAT
    }
  }
}
node {
  name: "report_uninitialized_variables/IsVariableInitialized_165"
  op: "IsVariableInitialized"
  input: "Full_Graph/adv_steps/bias_9/Adam_4"
  attr {
    key: "_class"
    value {
      list {
        s: "loc:@Full_Graph/adv_steps/bias_9"
      }
    }
  }
  attr {
    key: "_output_shapes"
    value {
      list {
        shape {
        }
      }
    }
  }
  attr {
    key: "dtype"
    value {
      type: DT_FLOAT
    }
  }
}
node {
  name: "report_uninitialized_variables/IsVariableInitialized_166"
  op: "IsVariableInitialized"
  input: "Full_Graph/adv_steps/bias_9/Adam_5"
  attr {
    key: "_class"
    value {
      list {
        s: "loc:@Full_Graph/adv_steps/bias_9"
      }
    }
  }
  attr {
    key: "_output_shapes"
    value {
      list {
        shape {
        }
      }
    }
  }
  attr {
    key: "dtype"
    value {
      type: DT_FLOAT
    }
  }
}
node {
  name: "report_uninitialized_variables/stack"
  op: "Pack"
  input: "report_uninitialized_variables/IsVariableInitialized"
  input: "report_uninitialized_variables/IsVariableInitialized_1"
  input: "report_uninitialized_variables/IsVariableInitialized_2"
  input: "report_uninitialized_variables/IsVariableInitialized_3"
  input: "report_uninitialized_variables/IsVariableInitialized_4"
  input: "report_uninitialized_variables/IsVariableInitialized_5"
  input: "report_uninitialized_variables/IsVariableInitialized_6"
  input: "report_uninitialized_variables/IsVariableInitialized_7"
  input: "report_uninitialized_variables/IsVariableInitialized_8"
  input: "report_uninitialized_variables/IsVariableInitialized_9"
  input: "report_uninitialized_variables/IsVariableInitialized_10"
  input: "report_uninitialized_variables/IsVariableInitialized_11"
  input: "report_uninitialized_variables/IsVariableInitialized_12"
  input: "report_uninitialized_variables/IsVariableInitialized_13"
  input: "report_uninitialized_variables/IsVariableInitialized_14"
  input: "report_uninitialized_variables/IsVariableInitialized_15"
  input: "report_uninitialized_variables/IsVariableInitialized_16"
  input: "report_uninitialized_variables/IsVariableInitialized_17"
  input: "report_uninitialized_variables/IsVariableInitialized_18"
  input: "report_uninitialized_variables/IsVariableInitialized_19"
  input: "report_uninitialized_variables/IsVariableInitialized_20"
  input: "report_uninitialized_variables/IsVariableInitialized_21"
  input: "report_uninitialized_variables/IsVariableInitialized_22"
  input: "report_uninitialized_variables/IsVariableInitialized_23"
  input: "report_uninitialized_variables/IsVariableInitialized_24"
  input: "report_uninitialized_variables/IsVariableInitialized_25"
  input: "report_uninitialized_variables/IsVariableInitialized_26"
  input: "report_uninitialized_variables/IsVariableInitialized_27"
  input: "report_uninitialized_variables/IsVariableInitialized_28"
  input: "report_uninitialized_variables/IsVariableInitialized_29"
  input: "report_uninitialized_variables/IsVariableInitialized_30"
  input: "report_uninitialized_variables/IsVariableInitialized_31"
  input: "report_uninitialized_variables/IsVariableInitialized_32"
  input: "report_uninitialized_variables/IsVariableInitialized_33"
  input: "report_uninitialized_variables/IsVariableInitialized_34"
  input: "report_uninitialized_variables/IsVariableInitialized_35"
  input: "report_uninitialized_variables/IsVariableInitialized_36"
  input: "report_uninitialized_variables/IsVariableInitialized_37"
  input: "report_uninitialized_variables/IsVariableInitialized_38"
  input: "report_uninitialized_variables/IsVariableInitialized_39"
  input: "report_uninitialized_variables/IsVariableInitialized_40"
  input: "report_uninitialized_variables/IsVariableInitialized_41"
  input: "report_uninitialized_variables/IsVariableInitialized_42"
  input: "report_uninitialized_variables/IsVariableInitialized_43"
  input: "report_uninitialized_variables/IsVariableInitialized_44"
  input: "report_uninitialized_variables/IsVariableInitialized_45"
  input: "report_uninitialized_variables/IsVariableInitialized_46"
  input: "report_uninitialized_variables/IsVariableInitialized_47"
  input: "report_uninitialized_variables/IsVariableInitialized_48"
  input: "report_uninitialized_variables/IsVariableInitialized_49"
  input: "report_uninitialized_variables/IsVariableInitialized_50"
  input: "report_uninitialized_variables/IsVariableInitialized_51"
  input: "report_uninitialized_variables/IsVariableInitialized_52"
  input: "report_uninitialized_variables/IsVariableInitialized_53"
  input: "report_uninitialized_variables/IsVariableInitialized_54"
  input: "report_uninitialized_variables/IsVariableInitialized_55"
  input: "report_uninitialized_variables/IsVariableInitialized_56"
  input: "report_uninitialized_variables/IsVariableInitialized_57"
  input: "report_uninitialized_variables/IsVariableInitialized_58"
  input: "report_uninitialized_variables/IsVariableInitialized_59"
  input: "report_uninitialized_variables/IsVariableInitialized_60"
  input: "report_uninitialized_variables/IsVariableInitialized_61"
  input: "report_uninitialized_variables/IsVariableInitialized_62"
  input: "report_uninitialized_variables/IsVariableInitialized_63"
  input: "report_uninitialized_variables/IsVariableInitialized_64"
  input: "report_uninitialized_variables/IsVariableInitialized_65"
  input: "report_uninitialized_variables/IsVariableInitialized_66"
  input: "report_uninitialized_variables/IsVariableInitialized_67"
  input: "report_uninitialized_variables/IsVariableInitialized_68"
  input: "report_uninitialized_variables/IsVariableInitialized_69"
  input: "report_uninitialized_variables/IsVariableInitialized_70"
  input: "report_uninitialized_variables/IsVariableInitialized_71"
  input: "report_uninitialized_variables/IsVariableInitialized_72"
  input: "report_uninitialized_variables/IsVariableInitialized_73"
  input: "report_uninitialized_variables/IsVariableInitialized_74"
  input: "report_uninitialized_variables/IsVariableInitialized_75"
  input: "report_uninitialized_variables/IsVariableInitialized_76"
  input: "report_uninitialized_variables/IsVariableInitialized_77"
  input: "report_uninitialized_variables/IsVariableInitialized_78"
  input: "report_uninitialized_variables/IsVariableInitialized_79"
  input: "report_uninitialized_variables/IsVariableInitialized_80"
  input: "report_uninitialized_variables/IsVariableInitialized_81"
  input: "report_uninitialized_variables/IsVariableInitialized_82"
  input: "report_uninitialized_variables/IsVariableInitialized_83"
  input: "report_uninitialized_variables/IsVariableInitialized_84"
  input: "report_uninitialized_variables/IsVariableInitialized_85"
  input: "report_uninitialized_variables/IsVariableInitialized_86"
  input: "report_uninitialized_variables/IsVariableInitialized_87"
  input: "report_uninitialized_variables/IsVariableInitialized_88"
  input: "report_uninitialized_variables/IsVariableInitialized_89"
  input: "report_uninitialized_variables/IsVariableInitialized_90"
  input: "report_uninitialized_variables/IsVariableInitialized_91"
  input: "report_uninitialized_variables/IsVariableInitialized_92"
  input: "report_uninitialized_variables/IsVariableInitialized_93"
  input: "report_uninitialized_variables/IsVariableInitialized_94"
  input: "report_uninitialized_variables/IsVariableInitialized_95"
  input: "report_uninitialized_variables/IsVariableInitialized_96"
  input: "report_uninitialized_variables/IsVariableInitialized_97"
  input: "report_uninitialized_variables/IsVariableInitialized_98"
  input: "report_uninitialized_variables/IsVariableInitialized_99"
  input: "report_uninitialized_variables/IsVariableInitialized_100"
  input: "report_uninitialized_variables/IsVariableInitialized_101"
  input: "report_uninitialized_variables/IsVariableInitialized_102"
  input: "report_uninitialized_variables/IsVariableInitialized_103"
  input: "report_uninitialized_variables/IsVariableInitialized_104"
  input: "report_uninitialized_variables/IsVariableInitialized_105"
  input: "report_uninitialized_variables/IsVariableInitialized_106"
  input: "report_uninitialized_variables/IsVariableInitialized_107"
  input: "report_uninitialized_variables/IsVariableInitialized_108"
  input: "report_uninitialized_variables/IsVariableInitialized_109"
  input: "report_uninitialized_variables/IsVariableInitialized_110"
  input: "report_uninitialized_variables/IsVariableInitialized_111"
  input: "report_uninitialized_variables/IsVariableInitialized_112"
  input: "report_uninitialized_variables/IsVariableInitialized_113"
  input: "report_uninitialized_variables/IsVariableInitialized_114"
  input: "report_uninitialized_variables/IsVariableInitialized_115"
  input: "report_uninitialized_variables/IsVariableInitialized_116"
  input: "report_uninitialized_variables/IsVariableInitialized_117"
  input: "report_uninitialized_variables/IsVariableInitialized_118"
  input: "report_uninitialized_variables/IsVariableInitialized_119"
  input: "report_uninitialized_variables/IsVariableInitialized_120"
  input: "report_uninitialized_variables/IsVariableInitialized_121"
  input: "report_uninitialized_variables/IsVariableInitialized_122"
  input: "report_uninitialized_variables/IsVariableInitialized_123"
  input: "report_uninitialized_variables/IsVariableInitialized_124"
  input: "report_uninitialized_variables/IsVariableInitialized_125"
  input: "report_uninitialized_variables/IsVariableInitialized_126"
  input: "report_uninitialized_variables/IsVariableInitialized_127"
  input: "report_uninitialized_variables/IsVariableInitialized_128"
  input: "report_uninitialized_variables/IsVariableInitialized_129"
  input: "report_uninitialized_variables/IsVariableInitialized_130"
  input: "report_uninitialized_variables/IsVariableInitialized_131"
  input: "report_uninitialized_variables/IsVariableInitialized_132"
  input: "report_uninitialized_variables/IsVariableInitialized_133"
  input: "report_uninitialized_variables/IsVariableInitialized_134"
  input: "report_uninitialized_variables/IsVariableInitialized_135"
  input: "report_uninitialized_variables/IsVariableInitialized_136"
  input: "report_uninitialized_variables/IsVariableInitialized_137"
  input: "report_uninitialized_variables/IsVariableInitialized_138"
  input: "report_uninitialized_variables/IsVariableInitialized_139"
  input: "report_uninitialized_variables/IsVariableInitialized_140"
  input: "report_uninitialized_variables/IsVariableInitialized_141"
  input: "report_uninitialized_variables/IsVariableInitialized_142"
  input: "report_uninitialized_variables/IsVariableInitialized_143"
  input: "report_uninitialized_variables/IsVariableInitialized_144"
  input: "report_uninitialized_variables/IsVariableInitialized_145"
  input: "report_uninitialized_variables/IsVariableInitialized_146"
  input: "report_uninitialized_variables/IsVariableInitialized_147"
  input: "report_uninitialized_variables/IsVariableInitialized_148"
  input: "report_uninitialized_variables/IsVariableInitialized_149"
  input: "report_uninitialized_variables/IsVariableInitialized_150"
  input: "report_uninitialized_variables/IsVariableInitialized_151"
  input: "report_uninitialized_variables/IsVariableInitialized_152"
  input: "report_uninitialized_variables/IsVariableInitialized_153"
  input: "report_uninitialized_variables/IsVariableInitialized_154"
  input: "report_uninitialized_variables/IsVariableInitialized_155"
  input: "report_uninitialized_variables/IsVariableInitialized_156"
  input: "report_uninitialized_variables/IsVariableInitialized_157"
  input: "report_uninitialized_variables/IsVariableInitialized_158"
  input: "report_uninitialized_variables/IsVariableInitialized_159"
  input: "report_uninitialized_variables/IsVariableInitialized_160"
  input: "report_uninitialized_variables/IsVariableInitialized_161"
  input: "report_uninitialized_variables/IsVariableInitialized_162"
  input: "report_uninitialized_variables/IsVariableInitialized_163"
  input: "report_uninitialized_variables/IsVariableInitialized_164"
  input: "report_uninitialized_variables/IsVariableInitialized_165"
  input: "report_uninitialized_variables/IsVariableInitialized_166"
  attr {
    key: "N"
    value {
      i: 167
    }
  }
  attr {
    key: "T"
    value {
      type: DT_BOOL
    }
  }
  attr {
    key: "_output_shapes"
    value {
      list {
        shape {
          dim {
            size: 167
          }
        }
      }
    }
  }
  attr {
    key: "axis"
    value {
      i: 0
    }
  }
}
node {
  name: "report_uninitialized_variables/LogicalNot"
  op: "LogicalNot"
  input: "report_uninitialized_variables/stack"
  attr {
    key: "_output_shapes"
    value {
      list {
        shape {
          dim {
            size: 167
          }
        }
      }
    }
  }
}
node {
  name: "report_uninitialized_variables/Const"
  op: "Const"
  attr {
    key: "_output_shapes"
    value {
      list {
        shape {
          dim {
            size: 167
          }
        }
      }
    }
  }
  attr {
    key: "dtype"
    value {
      type: DT_STRING
    }
  }
  attr {
    key: "value"
    value {
      tensor {
        dtype: DT_STRING
        tensor_shape {
          dim {
            size: 167
          }
        }
        string_val: "Full_Graph/global_step"
        string_val: "Full_Graph/adv_steps/weight"
        string_val: "Full_Graph/adv_steps/bias"
        string_val: "Full_Graph/adv_steps/weight_1"
        string_val: "Full_Graph/adv_steps/bias_1"
        string_val: "Full_Graph/adv_steps/weight_2"
        string_val: "Full_Graph/adv_steps/bias_2"
        string_val: "Full_Graph/adv_steps/weight_3"
        string_val: "Full_Graph/adv_steps/bias_3"
        string_val: "Full_Graph/adv_steps/weight_4"
        string_val: "Full_Graph/adv_steps/bias_4"
        string_val: "Full_Graph/adv_steps/weight_5"
        string_val: "Full_Graph/adv_steps/bias_5"
        string_val: "Full_Graph/adv_steps/weight_6"
        string_val: "Full_Graph/adv_steps/bias_6"
        string_val: "Full_Graph/adv_steps/weight_7"
        string_val: "Full_Graph/adv_steps/bias_7"
        string_val: "Full_Graph/adv_steps/weight_8"
        string_val: "Full_Graph/adv_steps/bias_8"
        string_val: "Full_Graph/adv_steps/weight_9"
        string_val: "Full_Graph/adv_steps/bias_9"
        string_val: "train_ops/beta1_power"
        string_val: "train_ops/beta2_power"
        string_val: "Full_Graph/adv_steps/weight/Adam"
        string_val: "Full_Graph/adv_steps/weight/Adam_1"
        string_val: "Full_Graph/adv_steps/bias/Adam"
        string_val: "Full_Graph/adv_steps/bias/Adam_1"
        string_val: "Full_Graph/adv_steps/weight_1/Adam"
        string_val: "Full_Graph/adv_steps/weight_1/Adam_1"
        string_val: "Full_Graph/adv_steps/bias_1/Adam"
        string_val: "Full_Graph/adv_steps/bias_1/Adam_1"
        string_val: "Full_Graph/adv_steps/weight_2/Adam"
        string_val: "Full_Graph/adv_steps/weight_2/Adam_1"
        string_val: "Full_Graph/adv_steps/bias_2/Adam"
        string_val: "Full_Graph/adv_steps/bias_2/Adam_1"
        string_val: "Full_Graph/adv_steps/weight_3/Adam"
        string_val: "Full_Graph/adv_steps/weight_3/Adam_1"
        string_val: "Full_Graph/adv_steps/bias_3/Adam"
        string_val: "Full_Graph/adv_steps/bias_3/Adam_1"
        string_val: "Full_Graph/adv_steps/weight_4/Adam"
        string_val: "Full_Graph/adv_steps/weight_4/Adam_1"
        string_val: "Full_Graph/adv_steps/bias_4/Adam"
        string_val: "Full_Graph/adv_steps/bias_4/Adam_1"
        string_val: "Full_Graph/adv_steps/weight_5/Adam"
        string_val: "Full_Graph/adv_steps/weight_5/Adam_1"
        string_val: "Full_Graph/adv_steps/bias_5/Adam"
        string_val: "Full_Graph/adv_steps/bias_5/Adam_1"
        string_val: "Full_Graph/adv_steps/weight_6/Adam"
        string_val: "Full_Graph/adv_steps/weight_6/Adam_1"
        string_val: "Full_Graph/adv_steps/bias_6/Adam"
        string_val: "Full_Graph/adv_steps/bias_6/Adam_1"
        string_val: "Full_Graph/adv_steps/weight_7/Adam"
        string_val: "Full_Graph/adv_steps/weight_7/Adam_1"
        string_val: "Full_Graph/adv_steps/bias_7/Adam"
        string_val: "Full_Graph/adv_steps/bias_7/Adam_1"
        string_val: "Full_Graph/adv_steps/weight_8/Adam"
        string_val: "Full_Graph/adv_steps/weight_8/Adam_1"
        string_val: "Full_Graph/adv_steps/bias_8/Adam"
        string_val: "Full_Graph/adv_steps/bias_8/Adam_1"
        string_val: "Full_Graph/adv_steps/weight_9/Adam"
        string_val: "Full_Graph/adv_steps/weight_9/Adam_1"
        string_val: "Full_Graph/adv_steps/bias_9/Adam"
        string_val: "Full_Graph/adv_steps/bias_9/Adam_1"
        string_val: "train_ops/beta1_power_1"
        string_val: "train_ops/beta2_power_1"
        string_val: "Full_Graph/adv_steps/weight/Adam_2"
        string_val: "Full_Graph/adv_steps/weight/Adam_3"
        string_val: "Full_Graph/adv_steps/bias/Adam_2"
        string_val: "Full_Graph/adv_steps/bias/Adam_3"
        string_val: "Full_Graph/adv_steps/weight_1/Adam_2"
        string_val: "Full_Graph/adv_steps/weight_1/Adam_3"
        string_val: "Full_Graph/adv_steps/bias_1/Adam_2"
        string_val: "Full_Graph/adv_steps/bias_1/Adam_3"
        string_val: "Full_Graph/adv_steps/weight_2/Adam_2"
        string_val: "Full_Graph/adv_steps/weight_2/Adam_3"
        string_val: "Full_Graph/adv_steps/bias_2/Adam_2"
        string_val: "Full_Graph/adv_steps/bias_2/Adam_3"
        string_val: "Full_Graph/adv_steps/weight_3/Adam_2"
        string_val: "Full_Graph/adv_steps/weight_3/Adam_3"
        string_val: "Full_Graph/adv_steps/bias_3/Adam_2"
        string_val: "Full_Graph/adv_steps/bias_3/Adam_3"
        string_val: "Full_Graph/adv_steps/weight_4/Adam_2"
        string_val: "Full_Graph/adv_steps/weight_4/Adam_3"
        string_val: "Full_Graph/adv_steps/bias_4/Adam_2"
        string_val: "Full_Graph/adv_steps/bias_4/Adam_3"
        string_val: "Full_Graph/adv_steps/weight_5/Adam_2"
        string_val: "Full_Graph/adv_steps/weight_5/Adam_3"
        string_val: "Full_Graph/adv_steps/bias_5/Adam_2"
        string_val: "Full_Graph/adv_steps/bias_5/Adam_3"
        string_val: "Full_Graph/adv_steps/weight_6/Adam_2"
        string_val: "Full_Graph/adv_steps/weight_6/Adam_3"
        string_val: "Full_Graph/adv_steps/bias_6/Adam_2"
        string_val: "Full_Graph/adv_steps/bias_6/Adam_3"
        string_val: "Full_Graph/adv_steps/weight_7/Adam_2"
        string_val: "Full_Graph/adv_steps/weight_7/Adam_3"
        string_val: "Full_Graph/adv_steps/bias_7/Adam_2"
        string_val: "Full_Graph/adv_steps/bias_7/Adam_3"
        string_val: "Full_Graph/adv_steps/weight_8/Adam_2"
        string_val: "Full_Graph/adv_steps/weight_8/Adam_3"
        string_val: "Full_Graph/adv_steps/bias_8/Adam_2"
        string_val: "Full_Graph/adv_steps/bias_8/Adam_3"
        string_val: "Full_Graph/adv_steps/weight_9/Adam_2"
        string_val: "Full_Graph/adv_steps/weight_9/Adam_3"
        string_val: "Full_Graph/adv_steps/bias_9/Adam_2"
        string_val: "Full_Graph/adv_steps/bias_9/Adam_3"
        string_val: "Full_Graph/adv_steps/weight/Adagrad"
        string_val: "Full_Graph/adv_steps/bias/Adagrad"
        string_val: "Full_Graph/adv_steps/weight_1/Adagrad"
        string_val: "Full_Graph/adv_steps/bias_1/Adagrad"
        string_val: "Full_Graph/adv_steps/weight_2/Adagrad"
        string_val: "Full_Graph/adv_steps/bias_2/Adagrad"
        string_val: "Full_Graph/adv_steps/weight_3/Adagrad"
        string_val: "Full_Graph/adv_steps/bias_3/Adagrad"
        string_val: "Full_Graph/adv_steps/weight_4/Adagrad"
        string_val: "Full_Graph/adv_steps/bias_4/Adagrad"
        string_val: "Full_Graph/adv_steps/weight_5/Adagrad"
        string_val: "Full_Graph/adv_steps/bias_5/Adagrad"
        string_val: "Full_Graph/adv_steps/weight_6/Adagrad"
        string_val: "Full_Graph/adv_steps/bias_6/Adagrad"
        string_val: "Full_Graph/adv_steps/weight_7/Adagrad"
        string_val: "Full_Graph/adv_steps/bias_7/Adagrad"
        string_val: "Full_Graph/adv_steps/weight_8/Adagrad"
        string_val: "Full_Graph/adv_steps/bias_8/Adagrad"
        string_val: "Full_Graph/adv_steps/weight_9/Adagrad"
        string_val: "Full_Graph/adv_steps/bias_9/Adagrad"
        string_val: "train_ops/beta1_power_2"
        string_val: "train_ops/beta2_power_2"
        string_val: "Full_Graph/adv_steps/weight/Adam_4"
        string_val: "Full_Graph/adv_steps/weight/Adam_5"
        string_val: "Full_Graph/adv_steps/bias/Adam_4"
        string_val: "Full_Graph/adv_steps/bias/Adam_5"
        string_val: "Full_Graph/adv_steps/weight_1/Adam_4"
        string_val: "Full_Graph/adv_steps/weight_1/Adam_5"
        string_val: "Full_Graph/adv_steps/bias_1/Adam_4"
        string_val: "Full_Graph/adv_steps/bias_1/Adam_5"
        string_val: "Full_Graph/adv_steps/weight_2/Adam_4"
        string_val: "Full_Graph/adv_steps/weight_2/Adam_5"
        string_val: "Full_Graph/adv_steps/bias_2/Adam_4"
        string_val: "Full_Graph/adv_steps/bias_2/Adam_5"
        string_val: "Full_Graph/adv_steps/weight_3/Adam_4"
        string_val: "Full_Graph/adv_steps/weight_3/Adam_5"
        string_val: "Full_Graph/adv_steps/bias_3/Adam_4"
        string_val: "Full_Graph/adv_steps/bias_3/Adam_5"
        string_val: "Full_Graph/adv_steps/weight_4/Adam_4"
        string_val: "Full_Graph/adv_steps/weight_4/Adam_5"
        string_val: "Full_Graph/adv_steps/bias_4/Adam_4"
        string_val: "Full_Graph/adv_steps/bias_4/Adam_5"
        string_val: "Full_Graph/adv_steps/weight_5/Adam_4"
        string_val: "Full_Graph/adv_steps/weight_5/Adam_5"
        string_val: "Full_Graph/adv_steps/bias_5/Adam_4"
        string_val: "Full_Graph/adv_steps/bias_5/Adam_5"
        string_val: "Full_Graph/adv_steps/weight_6/Adam_4"
        string_val: "Full_Graph/adv_steps/weight_6/Adam_5"
        string_val: "Full_Graph/adv_steps/bias_6/Adam_4"
        string_val: "Full_Graph/adv_steps/bias_6/Adam_5"
        string_val: "Full_Graph/adv_steps/weight_7/Adam_4"
        string_val: "Full_Graph/adv_steps/weight_7/Adam_5"
        string_val: "Full_Graph/adv_steps/bias_7/Adam_4"
        string_val: "Full_Graph/adv_steps/bias_7/Adam_5"
        string_val: "Full_Graph/adv_steps/weight_8/Adam_4"
        string_val: "Full_Graph/adv_steps/weight_8/Adam_5"
        string_val: "Full_Graph/adv_steps/bias_8/Adam_4"
        string_val: "Full_Graph/adv_steps/bias_8/Adam_5"
        string_val: "Full_Graph/adv_steps/weight_9/Adam_4"
        string_val: "Full_Graph/adv_steps/weight_9/Adam_5"
        string_val: "Full_Graph/adv_steps/bias_9/Adam_4"
        string_val: "Full_Graph/adv_steps/bias_9/Adam_5"
      }
    }
  }
}
node {
  name: "report_uninitialized_variables/boolean_mask/Shape"
  op: "Const"
  attr {
    key: "_output_shapes"
    value {
      list {
        shape {
          dim {
            size: 1
          }
        }
      }
    }
  }
  attr {
    key: "dtype"
    value {
      type: DT_INT32
    }
  }
  attr {
    key: "value"
    value {
      tensor {
        dtype: DT_INT32
        tensor_shape {
          dim {
            size: 1
          }
        }
        int_val: 167
      }
    }
  }
}
node {
  name: "report_uninitialized_variables/boolean_mask/strided_slice/stack"
  op: "Const"
  attr {
    key: "_output_shapes"
    value {
      list {
        shape {
          dim {
            size: 1
          }
        }
      }
    }
  }
  attr {
    key: "dtype"
    value {
      type: DT_INT32
    }
  }
  attr {
    key: "value"
    value {
      tensor {
        dtype: DT_INT32
        tensor_shape {
          dim {
            size: 1
          }
        }
        int_val: 0
      }
    }
  }
}
node {
  name: "report_uninitialized_variables/boolean_mask/strided_slice/stack_1"
  op: "Const"
  attr {
    key: "_output_shapes"
    value {
      list {
        shape {
          dim {
            size: 1
          }
        }
      }
    }
  }
  attr {
    key: "dtype"
    value {
      type: DT_INT32
    }
  }
  attr {
    key: "value"
    value {
      tensor {
        dtype: DT_INT32
        tensor_shape {
          dim {
            size: 1
          }
        }
        int_val: 1
      }
    }
  }
}
node {
  name: "report_uninitialized_variables/boolean_mask/strided_slice/stack_2"
  op: "Const"
  attr {
    key: "_output_shapes"
    value {
      list {
        shape {
          dim {
            size: 1
          }
        }
      }
    }
  }
  attr {
    key: "dtype"
    value {
      type: DT_INT32
    }
  }
  attr {
    key: "value"
    value {
      tensor {
        dtype: DT_INT32
        tensor_shape {
          dim {
            size: 1
          }
        }
        int_val: 1
      }
    }
  }
}
node {
  name: "report_uninitialized_variables/boolean_mask/strided_slice"
  op: "StridedSlice"
  input: "report_uninitialized_variables/boolean_mask/Shape"
  input: "report_uninitialized_variables/boolean_mask/strided_slice/stack"
  input: "report_uninitialized_variables/boolean_mask/strided_slice/stack_1"
  input: "report_uninitialized_variables/boolean_mask/strided_slice/stack_2"
  attr {
    key: "Index"
    value {
      type: DT_INT32
    }
  }
  attr {
    key: "T"
    value {
      type: DT_INT32
    }
  }
  attr {
    key: "_output_shapes"
    value {
      list {
        shape {
          dim {
            size: 1
          }
        }
      }
    }
  }
  attr {
    key: "begin_mask"
    value {
      i: 1
    }
  }
  attr {
    key: "ellipsis_mask"
    value {
      i: 0
    }
  }
  attr {
    key: "end_mask"
    value {
      i: 0
    }
  }
  attr {
    key: "new_axis_mask"
    value {
      i: 0
    }
  }
  attr {
    key: "shrink_axis_mask"
    value {
      i: 0
    }
  }
}
node {
  name: "report_uninitialized_variables/boolean_mask/Prod/reduction_indices"
  op: "Const"
  attr {
    key: "_output_shapes"
    value {
      list {
        shape {
          dim {
            size: 1
          }
        }
      }
    }
  }
  attr {
    key: "dtype"
    value {
      type: DT_INT32
    }
  }
  attr {
    key: "value"
    value {
      tensor {
        dtype: DT_INT32
        tensor_shape {
          dim {
            size: 1
          }
        }
        int_val: 0
      }
    }
  }
}
node {
  name: "report_uninitialized_variables/boolean_mask/Prod"
  op: "Prod"
  input: "report_uninitialized_variables/boolean_mask/strided_slice"
  input: "report_uninitialized_variables/boolean_mask/Prod/reduction_indices"
  attr {
    key: "T"
    value {
      type: DT_INT32
    }
  }
  attr {
    key: "Tidx"
    value {
      type: DT_INT32
    }
  }
  attr {
    key: "_output_shapes"
    value {
      list {
        shape {
        }
      }
    }
  }
  attr {
    key: "keep_dims"
    value {
      b: false
    }
  }
}
node {
  name: "report_uninitialized_variables/boolean_mask/Shape_1"
  op: "Const"
  attr {
    key: "_output_shapes"
    value {
      list {
        shape {
          dim {
            size: 1
          }
        }
      }
    }
  }
  attr {
    key: "dtype"
    value {
      type: DT_INT32
    }
  }
  attr {
    key: "value"
    value {
      tensor {
        dtype: DT_INT32
        tensor_shape {
          dim {
            size: 1
          }
        }
        int_val: 167
      }
    }
  }
}
node {
  name: "report_uninitialized_variables/boolean_mask/strided_slice_1/stack"
  op: "Const"
  attr {
    key: "_output_shapes"
    value {
      list {
        shape {
          dim {
            size: 1
          }
        }
      }
    }
  }
  attr {
    key: "dtype"
    value {
      type: DT_INT32
    }
  }
  attr {
    key: "value"
    value {
      tensor {
        dtype: DT_INT32
        tensor_shape {
          dim {
            size: 1
          }
        }
        int_val: 1
      }
    }
  }
}
node {
  name: "report_uninitialized_variables/boolean_mask/strided_slice_1/stack_1"
  op: "Const"
  attr {
    key: "_output_shapes"
    value {
      list {
        shape {
          dim {
            size: 1
          }
        }
      }
    }
  }
  attr {
    key: "dtype"
    value {
      type: DT_INT32
    }
  }
  attr {
    key: "value"
    value {
      tensor {
        dtype: DT_INT32
        tensor_shape {
          dim {
            size: 1
          }
        }
        int_val: 0
      }
    }
  }
}
node {
  name: "report_uninitialized_variables/boolean_mask/strided_slice_1/stack_2"
  op: "Const"
  attr {
    key: "_output_shapes"
    value {
      list {
        shape {
          dim {
            size: 1
          }
        }
      }
    }
  }
  attr {
    key: "dtype"
    value {
      type: DT_INT32
    }
  }
  attr {
    key: "value"
    value {
      tensor {
        dtype: DT_INT32
        tensor_shape {
          dim {
            size: 1
          }
        }
        int_val: 1
      }
    }
  }
}
node {
  name: "report_uninitialized_variables/boolean_mask/strided_slice_1"
  op: "StridedSlice"
  input: "report_uninitialized_variables/boolean_mask/Shape_1"
  input: "report_uninitialized_variables/boolean_mask/strided_slice_1/stack"
  input: "report_uninitialized_variables/boolean_mask/strided_slice_1/stack_1"
  input: "report_uninitialized_variables/boolean_mask/strided_slice_1/stack_2"
  attr {
    key: "Index"
    value {
      type: DT_INT32
    }
  }
  attr {
    key: "T"
    value {
      type: DT_INT32
    }
  }
  attr {
    key: "_output_shapes"
    value {
      list {
        shape {
          dim {
          }
        }
      }
    }
  }
  attr {
    key: "begin_mask"
    value {
      i: 0
    }
  }
  attr {
    key: "ellipsis_mask"
    value {
      i: 0
    }
  }
  attr {
    key: "end_mask"
    value {
      i: 1
    }
  }
  attr {
    key: "new_axis_mask"
    value {
      i: 0
    }
  }
  attr {
    key: "shrink_axis_mask"
    value {
      i: 0
    }
  }
}
node {
  name: "report_uninitialized_variables/boolean_mask/concat/values_0"
  op: "Pack"
  input: "report_uninitialized_variables/boolean_mask/Prod"
  attr {
    key: "N"
    value {
      i: 1
    }
  }
  attr {
    key: "T"
    value {
      type: DT_INT32
    }
  }
  attr {
    key: "_output_shapes"
    value {
      list {
        shape {
          dim {
            size: 1
          }
        }
      }
    }
  }
  attr {
    key: "axis"
    value {
      i: 0
    }
  }
}
node {
  name: "report_uninitialized_variables/boolean_mask/concat/axis"
  op: "Const"
  attr {
    key: "_output_shapes"
    value {
      list {
        shape {
        }
      }
    }
  }
  attr {
    key: "dtype"
    value {
      type: DT_INT32
    }
  }
  attr {
    key: "value"
    value {
      tensor {
        dtype: DT_INT32
        tensor_shape {
        }
        int_val: 0
      }
    }
  }
}
node {
  name: "report_uninitialized_variables/boolean_mask/concat"
  op: "ConcatV2"
  input: "report_uninitialized_variables/boolean_mask/concat/values_0"
  input: "report_uninitialized_variables/boolean_mask/strided_slice_1"
  input: "report_uninitialized_variables/boolean_mask/concat/axis"
  attr {
    key: "N"
    value {
      i: 2
    }
  }
  attr {
    key: "T"
    value {
      type: DT_INT32
    }
  }
  attr {
    key: "Tidx"
    value {
      type: DT_INT32
    }
  }
  attr {
    key: "_output_shapes"
    value {
      list {
        shape {
          dim {
            size: 1
          }
        }
      }
    }
  }
}
node {
  name: "report_uninitialized_variables/boolean_mask/Reshape"
  op: "Reshape"
  input: "report_uninitialized_variables/Const"
  input: "report_uninitialized_variables/boolean_mask/concat"
  attr {
    key: "T"
    value {
      type: DT_STRING
    }
  }
  attr {
    key: "Tshape"
    value {
      type: DT_INT32
    }
  }
  attr {
    key: "_output_shapes"
    value {
      list {
        shape {
          dim {
            size: 167
          }
        }
      }
    }
  }
}
node {
  name: "report_uninitialized_variables/boolean_mask/Reshape_1/shape"
  op: "Const"
  attr {
    key: "_output_shapes"
    value {
      list {
        shape {
          dim {
            size: 1
          }
        }
      }
    }
  }
  attr {
    key: "dtype"
    value {
      type: DT_INT32
    }
  }
  attr {
    key: "value"
    value {
      tensor {
        dtype: DT_INT32
        tensor_shape {
          dim {
            size: 1
          }
        }
        int_val: -1
      }
    }
  }
}
node {
  name: "report_uninitialized_variables/boolean_mask/Reshape_1"
  op: "Reshape"
  input: "report_uninitialized_variables/LogicalNot"
  input: "report_uninitialized_variables/boolean_mask/Reshape_1/shape"
  attr {
    key: "T"
    value {
      type: DT_BOOL
    }
  }
  attr {
    key: "Tshape"
    value {
      type: DT_INT32
    }
  }
  attr {
    key: "_output_shapes"
    value {
      list {
        shape {
          dim {
            size: 167
          }
        }
      }
    }
  }
}
node {
  name: "report_uninitialized_variables/boolean_mask/Where"
  op: "Where"
  input: "report_uninitialized_variables/boolean_mask/Reshape_1"
  attr {
    key: "_output_shapes"
    value {
      list {
        shape {
          dim {
            size: -1
          }
          dim {
            size: 1
          }
        }
      }
    }
  }
}
node {
  name: "report_uninitialized_variables/boolean_mask/Squeeze"
  op: "Squeeze"
  input: "report_uninitialized_variables/boolean_mask/Where"
  attr {
    key: "T"
    value {
      type: DT_INT64
    }
  }
  attr {
    key: "_output_shapes"
    value {
      list {
        shape {
          dim {
            size: -1
          }
        }
      }
    }
  }
  attr {
    key: "squeeze_dims"
    value {
      list {
        i: 1
      }
    }
  }
}
node {
  name: "report_uninitialized_variables/boolean_mask/Gather"
  op: "Gather"
  input: "report_uninitialized_variables/boolean_mask/Reshape"
  input: "report_uninitialized_variables/boolean_mask/Squeeze"
  attr {
    key: "Tindices"
    value {
      type: DT_INT64
    }
  }
  attr {
    key: "Tparams"
    value {
      type: DT_STRING
    }
  }
  attr {
    key: "_output_shapes"
    value {
      list {
        shape {
          dim {
            size: -1
          }
        }
      }
    }
  }
  attr {
    key: "validate_indices"
    value {
      b: true
    }
  }
}
node {
  name: "init_1"
  op: "NoOp"
}
node {
  name: "init_all_tables"
  op: "NoOp"
}
node {
  name: "group_deps"
  op: "NoOp"
  input: "^init_1"
  input: "^init_all_tables"
}
versions {
  producer: 21
}
